runs/ERA_HydroATLAS/model_epoch030.pt (torch, 827731 bytes, 6 tensors)

input_gate.weight f4 [256, 21]
000000 24 7a 82 3e 6c 98 94 3e 55 42 1d 3e d6 fe 08 3f
       0.2548381 0.2902254 0.15357335 0.5351385
000010 12 bb 24 3d 31 05 05 bd ef 49 8a 3d 77 94 66 3e
       0.040217467 -0.032475654 0.06752383 0.22517572
000020 a6 01 60 3f ba 2f 68 bf c3 a8 41 3f 7c 49 c3 bd
       0.87502515 -0.90697825 0.75648135 -0.095355004
000030 85 66 97 3e 11 c5 b2 be 7b fb c9 bd 48 97 1a 3e
       0.29570404 -0.34915975 -0.09862419 0.15096772
000040 66 ea 70 3e af a6 00 bf 68 7c ad 3e 30 6d 35 bf
       0.23526916 -0.5025434 0.33883977 -0.7086973
000050 7e a3 6e 3e ab c7 a7 3e 13 f8 9f be f4 71 9c bd
       0.23304555 0.32769522 -0.31243953 -0.07638922
000060 60 6d c6 3d 57 3c c2 3d ba 0b 66 3e 18 42 7d bd
       0.096888304 0.09484165 0.22465411 -0.06183061
000070 67 b5 27 3f a2 e9 29 bf d2 d0 e7 3e 65 a5 29 bd
       0.65511173 -0.6637212 0.45276505 -0.0414175
000080 2d 9e 72 bd b1 fd 9f 3e 09 cc 26 3f c4 9c 9b bd
       -0.05923288 0.3124824 0.6515508 -0.0759826
000090 19 07 ce 3e d9 e4 75 3e a2 42 20 3f dd be 5f be
       0.4023979 0.2401308 0.62601674 -0.21850152
0000a0 26 4d 37 3e ba a7 e5 be cf 28 fd bd 0c 90 29 3e
       0.17900524 -0.44854528 -0.12361299 0.16558856
0000b0 ac a0 e1 be 82 cc 0b bf f0 07 f5 3e f5 36 20 3f
       -0.44067895 -0.5460893 0.47857618 0.6258386
0000c0 1e 23 96 be f8 2c 04 3d ba 07 27 bf 58 79 4a bf
       -0.29323667 0.032269448 -0.65246165 -0.79091406
0000d0 01 fe 8b 3e c6 7b 2d 3f 5f 48 0f 3f 49 f6 bf bd
       0.27342227 0.6776699 0.55969805 -0.09373147
0000e0 af 17 0a 3f 1c 63 1f 3d 45 11 5e 3d 15 c0 e2 3e
       0.5394239 0.038912877 0.05421569 0.44287172
0000f0 82 82 b6 be 56 ef 8d 3e d8 55 e7 3d 1d fa b6 3d
       -0.35646445 0.2772166 0.1129567 0.08934424
000100 c5 ba 49 3f 44 6d b9 be c8 9b cc bf 8f 1b 1d bf
       0.7880061 -0.36216176 -1.5985041 -0.61370176
000110 7b 2a 83 3f 18 c1 77 be c4 24 a2 3e 4f ba ec 3f
       1.0247339 -0.24194753 0.31668675 1.8494357
000120 51 cf 3c bd 46 1a 51 bf 82 33 05 be 63 9b 03 be
       -0.04609615 -0.81680715 -0.1300793 -0.12852244
000130 d8 af 01 3f 3f ce 69 3d e0 6d 50 3f d5 f5 f0 3c
       0.5065894 0.057081457 0.81417656 0.029414097
000140 42 98 05 bf 0a bc eb 3d 81 89 c9 bd 37 18 d7 3f
       -0.5218545 0.11510475 -0.0984068 1.6804265
000150 68 d8 89 bd c1 6d a0 be 63 51 ed 3e 63 a5 0d bf
       -0.06730729 -0.31333736 0.46351156 -0.55330485
000160 97 bf 3f bd 71 ce 35 3f ff 19 58 bd a5 b1 22 bf
       -0.046813574 0.7101813 -0.052759167 -0.63552314
000170 b0 59 ea 3e 52 f7 c5 3e e4 85 0a 3f 69 25 40 be
       0.4577155 0.38665253 0.5411055 -0.18764271
000180 be 3b c3 3e 11 f6 0b be d9 b3 78 be 0f 32 d6 bd
       0.38131517 -0.13668086 -0.24287356 -0.10458767
000190 74 bd 40 bd dc 32 55 3e 75 6f f9 bd 35 2a 78 be
       -0.047055677 0.20820183 -0.12179462 -0.2423485
0001a0 40 a6 9e 3d 9d 26 d8 bd 0a 6b a4 bd 28 8d ac bd
       0.077465534 -0.1055424 -0.080282286 -0.08425361
0001b0 80 88 0f be 0c bc e2 bd ea 5d b4 3e 6a f4 16 3e
       -0.14016914 -0.11071023 0.352279 0.14741674
0001c0 83 14 9b 3d c8 e7 37 be dd e5 f8 bd bf 53 74 3e
       0.07572272 -0.17959511 -0.12153218 0.23860072
0001d0 72 ef b3 be 0f cb fd bd 09 f5 02 bd 5d 59 f2 be
       -0.3514362 -0.12392246 -0.031971965 -0.47333804
0001e0 57 3a cb 3b 9f 86 bb 3d d4 2b a9 3c 69 06 24 be
       0.006202023 0.09156536 0.020650782 -0.1601807
0001f0 99 e7 36 be 7e 87 a0 be 18 fa 87 be c3 7f 9d be
       -0.17861785 -0.31353372 -0.26557994 -0.30761537
000200 1f ed f9 3e 97 9f 3e be 79 1b eb 3d 8e 1c 6c 3e
       0.48813722 -0.18615566 0.11479849 0.23057768
000210 3e db 3e bd 90 49 1a 3e 49 79 34 3d 9c 25 61 bd
       -0.046595804 0.15067124 0.04406098 -0.054967508
000220 aa b8 53 be 89 59 2e be 2c 51 67 3e 8a 9a 20 3e
       -0.20675912 -0.17026342 0.22589558 0.15683952
000230 99 15 d4 3d 1a c8 74 bc fe e7 bb 3e a8 79 b2 bd
       0.10355682 -0.014940286 0.36700433 -0.0871461
000240 9d f4 36 be d0 82 d9 bd 48 ad 08 3f e1 b8 60 3d
       -0.1786675 -0.10620654 0.53389406 0.054863814
000250 8b d6 3a be 50 cf e8 bd 63 7b ce 3d 29 ab 06 3e
       -0.18245904 -0.11367667 0.10082128 0.1315123
000260 f2 35 24 3d da c7 78 3e d8 f8 a8 3d a0 fd 4f be
       0.04009051 0.24294987 0.08250588 -0.20311594
000270 bd d4 b0 3d 78 44 31 bb ec a5 e0 3d 8c a7 34 3f
       0.086343266 -0.0027048867 0.10969147 0.70568156
000280 c7 7b 9c bd 3b 2b 9e 3e fc 98 c3 3e 55 2e 64 3d
       -0.07640796 0.30892357 0.38202655 0.05570825
000290 0e 0e 1a be 7c 90 58 bd c0 74 4d 3f 78 94 a0 bf
       -0.15044424 -0.052872166 0.8025627 -1.2545309
0002a0 63 fc ff be 8e 38 f1 be f6 69 16 3e 34 93 de bb
       -0.49997243 -0.4711346 0.14688858 -0.0067924503
0002b0 88 8a d2 3e aa a2 4f bd dc 9a 14 3e 60 d8 40 bf
       0.41121316 -0.050692238 0.14512199 -0.7533016
0002c0 83 74 a9 be a7 65 87 3c 89 e4 4f 3e ac de 59 3e
       -0.33096704 0.016527964 0.20302023 0.21276349
0002d0 74 60 86 3e 2b 5c 7b be f9 d4 b2 3e 8c 1c a0 3e
       0.26245463 -0.24546878 0.3492811 0.3127178
0002e0 b5 91 cd 3e df 7f 44 3f ea 4c 1d bf 18 d4 d6 be
       0.40150228 0.76757616 -0.61445487 -0.4195869
0002f0 7b eb 06 3e 6d 44 66 be 65 53 0e be 56 17 24 3e
       0.13175766 -0.2248704 -0.13899 0.16024527
000300 ad db 36 3e 3d d9 d7 3e db d9 87 bc db 4b 22 bd
       0.17857237 0.42157927 -0.016583374 -0.039623123
000310 e2 f0 57 3e a3 2a 19 3e de 33 88 3e 73 38 97 3e
       0.21087983 0.14957671 0.26602072 0.29535255
000320 33 3e 1c bd 6c 27 cc 3c cc 67 10 3e 77 e1 0a 3e
       -0.038145255 0.024921142 0.14102095 0.1356257
000330 ba ef 28 3e bb 87 e5 3c 7f 55 ea bc db 6d 54 bc
       0.16497698 0.028018823 -0.02860522 -0.012965645
000340 e2 c3 57 bc ba 6c 22 3d 94 90 5e bd 1b 1b 84 bc
       -0.013169261 0.03965447 -0.0543371 -0.016126206
000350 7f 3e a5 3b 3a 75 02 3e b1 0f b5 3d 2d a7 ac 3b
       0.0050428505 0.12740031 0.088408835 0.0052689523
000360 cf ec fa 3d 0a cb aa bc 43 42 3c 3e d4 6d ee be
       0.12252199 -0.02084877 0.18384652 -0.46568167
000370 ed ed 97 bd 7f aa d6 3d b9 04 8d 3c c6 2f 83 be
       -0.074184276 0.10481738 0.017214166 -0.25622386
000380 89 c8 8d be b7 a5 bc 3e 71 01 c3 3e 5e 7e 0d 3f
       -0.2769206 0.3684518 0.38087037 0.55270946
000390 fd 13 fc bb 0f a6 7b bd f9 78 e7 be 8b 56 05 3f
       -0.0076928125 -0.061437663 -0.45209482 0.5208518
0003a0 85 3f 0b 3f da b4 c8 be ae f9 05 3f cc ac 7c 3e
       0.543938 -0.3920048 0.52334106 0.24675292
0003b0 e0 c1 d7 be d0 df 90 be 06 fe 6c be e9 e3 a0 bd
       -0.42140102 -0.28295755 -0.23143777 -0.078559704
0003c0 51 35 04 bf 65 fd 89 be dc 8a 83 3f a9 6e 82 3d
       -0.51643854 -0.26951137 1.0276752 0.06368763
0003d0 d1 c0 af 3d 39 ab e2 3e 9f 52 ff 3e 3f a5 19 3f
       0.08581699 0.44271258 0.49867722 0.6001777
0003e0 e8 75 da be 54 19 1f 3f ec 8a 01 be 4a 17 a5 be
       -0.4266808 0.6214802 -0.1265065 -0.3224433
0003f0 10 78 a6 be 03 26 09 bf 40 f0 31 3f fd 18 ce be
       -0.32513475 -0.53573626 0.6950722 -0.4025344

input_gate.bias f4 [256]
000000 cc 45 35 be 64 aa 80 be cf 75 ad be b9 19 45 bf
       -0.17702407 -0.25129998 -0.33878943 -0.76992375
000010 df db 2d bd 98 62 51 3e 4c 84 3b 3b c6 5b 7b bf
       -0.042446014 0.20447767 0.002861279 -0.9818691
000020 f4 35 74 be 89 f7 00 3e 7c fe 94 3d 9e 12 73 be
       -0.23848706 0.12594427 0.072751015 -0.2373757
000030 ad c2 84 be 28 d0 94 3d 3b f9 8a bd ae ed 5e bf
       -0.25929776 0.07266265 -0.06785818 -0.8708142
000040 9d e3 dd 3e 8c 32 a2 bd ac 6a ba 3d 26 03 bf 3e
       0.43337718 -0.07919797 0.09102377 0.3730709
000050 48 84 8b bc b8 ba 42 3e 8e bd 0c 3f fe e7 aa bf
       -0.01703085 0.1901654 0.5497674 -1.3352048
000060 81 19 6d 3c 74 10 2c bd 5c 15 e3 be 3d 87 05 be
       0.014471413 -0.04200788 -0.44352233 -0.1303987
000070 11 02 ac 3d c7 a2 91 bf 8d dd 0f 3d 99 e9 d0 be
       0.08398832 -1.1377801 0.035123397 -0.4080322
000080 6b ed bd 3d ed ac 82 3e 13 e5 39 b9 47 72 32 bf
       0.092737995 0.25522557 -0.00017728312 -0.69705623
000090 ac 0d c5 bf ef 50 0b bf 8a 66 93 3d 34 79 1e bd
       -1.5394797 -0.5442037 0.07197292 -0.038689807
0000a0 93 1b 29 3c e2 14 fd be 59 b7 64 be bb f5 3e 3d
       0.010321516 -0.49429995 -0.22335567 0.046621066
0000b0 0f c7 f0 be de e5 ac bf 82 b4 41 be 11 d7 0c bf
       -0.4702687 -1.350765 -0.18916515 -0.55015665
0000c0 3c 00 4e 3c 8e ba 68 be 9d e3 46 bf 78 76 a7 be
       0.012573298 -0.22727415 -0.7769106 -0.32707572
0000d0 43 06 5e 3b 5d 90 f1 bc b6 8d a7 3c 4b 25 2a 3e
       0.0033878244 -0.029487783 0.020453315 0.16615789
0000e0 bc 2b df be 7d 46 46 bd ef be a1 3e d1 d9 96 bf
       -0.43588054 -0.048407067 0.31590983 -1.1785222
0000f0 29 63 26 3e ea 15 f4 3d 30 e2 ef bf 9e bf 11 be
       0.16248764 0.11918242 -1.8740902 -0.14233252
000100 0f 1c a7 bd f5 db 5b bf 49 73 94 be 50 35 b1 be
       -0.081596486 -0.858825 -0.28994206 -0.34610987
000110 e2 35 ae 3e 56 b1 f6 3d 76 db a0 bd 02 f9 ac bf
       0.34025484 0.12045543 -0.07854359 -1.3513491
000120 76 6f e2 3d 29 03 ae bc 2a 27 99 be 26 fe 7f bd
       0.11056416 -0.021241741 -0.29912692 -0.062498234
000130 08 92 c8 bd 40 e5 05 3e dd cd a7 3e 94 77 54 3e
       -0.09793478 0.13075733 0.3277425 0.2074874
000140 b3 bf 4f bf ae 5a 5c be 61 60 90 3e be ac e8 be
       -0.81151885 -0.21518967 0.2819853 -0.45444292
000150 ff cb 21 3e 5d 74 c6 be f0 a2 d2 be d8 19 54 3e
       0.15800475 -0.38760653 -0.41139936 0.20712984
000160 80 64 62 bf 4a 35 2e be 45 41 83 3d d9 98 3b 3e
       -0.884346 -0.17012516 0.064089336 0.18320026
000170 0e d3 c8 3c 8c a8 f6 be 2f 6a ac be ef 13 2e bd
       0.024514701 -0.48175466 -0.33674762 -0.04249948
000180 e2 b0 e6 3e dc 23 28 bf c0 ce 7d 3e b6 48 69 3e
       0.45056826 -0.6567972 0.247859 0.22781643
000190 4a 7b 52 bf 0a a2 1a 3e 62 ff 86 be 2d 9a b9 bc
       -0.82219374 0.15100875 -0.26366717 -0.022656525
0001a0 3b 7d 1e be 17 d7 75 3e d9 64 b6 be 89 40 0d be
       -0.15477459 0.24007832 -0.35623816 -0.1379415
0001b0 b2 25 c6 be 33 9c c7 be 25 01 ce be e3 57 1b bf
       -0.38700634 -0.38986358 -0.40235248 -0.6068098
0001c0 bf f4 47 be a9 bf 6d 3e e0 39 36 bf a7 16 8d 3c
       -0.19526957 0.23217644 -0.7118206 0.017222716
0001d0 92 5d 8f be af a1 31 bc 23 ed 19 3d c3 95 44 be
       -0.28001076 -0.010841771 0.037579667 -0.19197755
0001e0 8e b4 42 bd c1 7f 61 3e fc dd 6f be eb f5 e5 bd
       -0.04753547 0.2202139 -0.23424524 -0.11228546
0001f0 e0 75 be be 2f e9 93 3d ba 20 88 3e dc 86 0a bc
       -0.37199306 0.072222106 0.26587468 -0.008455005
000200 ef 48 93 bf 00 cf 15 3d 88 26 92 be 0b b1 a2 bd
       -1.1506633 0.036574364 -0.28545022 -0.079439245
000210 03 3d e3 bd a9 36 41 3e 3c af c0 3d 9b 17 8f 3e
       -0.110956214 0.18868507 0.09408423 0.27947697
000220 31 d0 77 be 36 a3 ef be 03 d0 85 3e 99 a7 75 3e
       -0.24200512 -0.46804208 0.26135263 0.23989715
000230 58 fa 92 3b 72 95 7b 3e 6e f5 de 3d 8e 4a ae bd
       0.0044854097 0.24568728 0.10886656 -0.08510314
000240 c7 c5 41 3e 88 09 a5 be a2 af 54 be b6 8a 1c bf
       0.18923102 -0.32233834 -0.20770124 -0.61149156
000250 64 e6 10 be 26 37 49 3e 27 9e 60 3d 66 6a f9 be
       -0.14150387 0.19649944 0.054838326 -0.48713988
000260 92 e1 f2 be 23 38 9f bf ce 09 9c be 67 d8 18 be
       -0.47437721 -1.2439007 -0.3047623 -0.14926301
000270 ed b5 0c be 78 fd 66 3e e1 20 a6 3d e6 90 b9 be
       -0.13741274 0.22557628 0.0811174 -0.3624336
000280 ed 76 5e bf d4 df 24 bf 2e a8 b1 be cc b3 d4 be
       -0.86900216 -0.64404035 -0.34698623 -0.41543424
000290 dc e3 1a bf 70 f4 97 3e 8b 93 7b bd 12 c6 05 3e
       -0.60503936 0.2967868 -0.061420005 0.13063839
0002a0 b3 bd ee be 50 6d 78 bd 85 6a 46 be 5a de d4 3d
       -0.46629104 -0.060651124 -0.19376571 0.10393973
0002b0 28 7a 09 3d a3 71 84 3d 38 a5 f6 be 5e 3d 0e be
       0.033563763 0.06466987 -0.48172927 -0.13890597
0002c0 de f3 78 3d aa 0e 12 3d 16 c7 07 bf 06 cf 2c bf
       0.060779445 0.035658516 -0.53038156 -0.6750339
0002d0 39 f1 c9 be 9f ee 15 bf a9 92 86 3e 6c 47 8a be
       -0.3944185 -0.5856723 0.26283768 -0.27007616
0002e0 dc eb 1b 3e a7 37 6c 3e d8 b2 cf 3e 4f d1 66 be
       0.15226692 0.23068105 0.40566134 -0.22540782
0002f0 c6 3c 0f bf 30 5b c8 bd 23 09 c6 be b0 52 3f 3d
       -0.5595211 -0.09783018 -0.38678846 0.046709716
000300 21 6f 84 3e 3b df a3 3c cc 4e 24 3e d2 b3 02 bf
       0.25866035 0.020003906 0.16045684 -0.51055634
000310 4d ad 0b bf 54 55 9b bf 60 53 82 3c af 8c b3 3d
       -0.5456131 -1.2135415 0.015908897 0.08767068
000320 24 0b fc bd ae 19 28 bf 96 25 a3 bd 52 ea 26 be
       -0.123068124 -0.65664184 -0.07966153 -0.16300324
000330 2c 34 b9 be a6 39 9d 3e e9 61 98 be 3d 33 ed 3d
       -0.36172616 0.30708045 -0.297622 0.115820386
000340 20 91 28 3e a2 76 1f bf 54 0f c3 be 60 e0 88 3e
       0.16461611 -0.62290394 -0.38097632 0.26733685
000350 56 08 0d be cc 4e 97 bd ac 73 d7 3d be cf f2 bd
       -0.13772711 -0.07388076 0.105201095 -0.1185603
000360 4c 81 52 3e fe 46 51 be f6 7f 0d 3d 31 68 3a bf
       0.20557135 -0.20437238 0.03454586 -0.72815233
000370 25 4a 8e bd 03 8a 31 bd 82 24 af 3e d9 6f 15 bf
       -0.06947736 -0.04334451 0.3420754 -0.5837379
000380 cc e9 59 3e c0 db 87 bd 8a bc c9 be e2 09 a2 3d
       0.21280593 -0.06633711 -0.39401656 0.07912041
000390 08 dc be 3d a2 9b 3d be 3b 4b 94 3e d4 9d 13 bf
       0.093193114 -0.185164 0.28963646 -0.576627
0003a0 b8 2a 1f 3e 6a ea 9f 3e 97 24 19 bf 76 1c 6a be
       0.1554364 0.3123353 -0.59821457 -0.2286242
0003b0 28 82 15 be 9d 41 a2 be 34 17 db bd 18 7f 5d 3e
       -0.14600432 -0.31690684 -0.10697785 0.21630514
0003c0 23 59 ca bd 21 8e 7e 3e 8e f8 9d 3d 08 f3 0a be
       -0.09880283 0.24858905 0.07713424 -0.13569272
0003d0 eb 08 84 be eb fa 95 be d5 6f 8f bf a8 64 a8 be
       -0.25788054 -0.29292998 -1.1206003 -0.32889295
0003e0 12 ff 1b be 27 48 13 be 3f 13 03 3e bf cb 93 ba
       -0.1523402 -0.14382993 0.1280031 -0.0011275931
0003f0 d1 4b d0 bc b8 22 6d 3e ee ac 60 3e ce 22 87 3d
       -0.025426777 0.23157775 0.21940967 0.06598435

dynamic_gates.weight_ih f4 [4, 768]
000000 04 4f 95 3d 6f 0f da be 7c 8e 99 bd ea 16 d5 3e
       0.07290462 -0.425899 -0.0749788 0.41619045
000010 d1 80 7f be 58 99 c2 bc e1 60 d9 3e 40 df e3 3d
       -0.24951483 -0.02375476 0.42456725 0.11126566
000020 e6 b5 bd be f0 e1 53 3e 0d 50 16 be d8 ea 4b be
       -0.3705284 0.20691657 -0.14678974 -0.19913805
000030 b6 6e 23 3e 08 57 88 3b 99 94 54 bf 4f 0e 34 be
       0.15960202 0.0041607656 -0.8303924 -0.17583583
000040 25 ca ab 3e 26 ca d5 3e 3b ae da 3c d7 06 8a bd
       0.33552662 0.4175579 0.026694408 -0.06739586
000050 db 0f dc 3d ea 39 4c bf ee 45 fa be a7 c8 99 3d
       0.10745212 -0.7977587 -0.48881477 0.075089745
000060 cf 97 25 be ef 05 01 3e 7a d8 9b bd 83 4a ac 3d
       -0.16171192 0.1259992 -0.07609649 0.084126495
000070 5e af 8b 3c 3b 83 ef bd 26 73 30 3d 90 4f 14 3f
       0.017051395 -0.11694952 0.043078564 0.579339
000080 37 77 87 be fa fc ba 3c cb e6 0d 3e 31 e6 d4 3c
       -0.2645814 0.022825707 0.13857572 0.02598867
000090 ea 3b 8c 3e 11 db 66 3e 20 03 8f bc 91 7f dd be
       0.2738946 0.22544505 -0.017457545 -0.43261388
0000a0 7f 68 60 be 6e c3 44 be 86 83 40 bf 09 3e b0 3d
       -0.21914862 -0.19215176 -0.7520069 0.08605582
0000b0 37 68 63 bc ca 4e 91 be 2b 3a af 3d b2 88 03 3f
       -0.013879827 -0.28380424 0.085560165 0.51380455
0000c0 83 2a d5 bb bd f8 11 3e f7 2d 5f bf 71 53 7e bd
       -0.006505312 0.14255042 -0.8717951 -0.062091295
0000d0 79 09 08 be 86 c0 24 3e f2 cb 08 3e 63 97 cf 3b
       -0.13284864 0.16089067 0.13359049 0.0063351854
0000e0 56 23 83 3e 65 b1 03 3d cf b7 6c be 60 4f b0 be
       0.25612897 0.0321516 -0.23116992 -0.34435558
0000f0 90 e3 c5 3d 38 07 a8 3e f7 6a e1 3e 9a cf 25 3e
       0.09662545 0.32818007 0.4402692 0.16192475
000100 fd 32 af bd 6e 4d 0e bd 89 de f1 bd cf 1c 60 3e
       -0.08554647 -0.03474181 -0.11810023 0.2188599
000110 d0 44 4a 3d 6a f8 4f 3e 6b 16 44 3f 61 9c 46 3f
       0.04938203 0.20309606 0.7659671 0.77582365
000120 1c 4a b7 bb d8 2b 43 3c 1e ea d2 3e e8 b8 8e 3e
       -0.0055935513 0.011912309 0.41194242 0.27875447
000130 a1 61 13 be b7 7c 2a be 95 a5 a1 be ff 4d d4 be
       -0.14392711 -0.16649137 -0.31571642 -0.41465756
000140 fc d8 b0 be 46 59 61 3e 7d 71 35 3e 5b cb 5d be
       -0.34540546 0.22006711 0.17719074 -0.21659605
000150 a6 39 8d be 2d 08 2d 3f bf 8c c9 3e 10 54 6b be
       -0.27583045 0.675906 0.39365193 -0.22981286
000160 a9 0e 0d bd 8c 57 1c 3d e3 6c 13 3e 97 dd e6 bd
       -0.03443781 0.03816943 0.14397006 -0.11272734
000170 a3 04 e9 bd 5e 23 c9 3d 3c 20 75 be 59 fc f5 3d
       -0.113778375 0.09821199 -0.23938078 0.12011022
000180 f3 30 29 3e ec 42 14 be b8 cc 4e 3e 8c 84 0a bf
       0.16522579 -0.14478654 0.20195282 -0.541085
000190 fa 16 78 be f9 3b 56 bd c0 90 10 3e b5 70 ac be
       -0.24227515 -0.052303288 0.14117718 -0.3367974
0001a0 26 9b 4c 3e ac b0 84 be de 90 ab 3d e8 f2 82 3d
       0.1998106 -0.2591604 0.083772406 0.06393987
0001b0 9b 82 e6 bc ae b6 f4 3e 30 33 21 3c e5 b8 60 3e
       -0.02813845 0.47795624 0.009838864 0.21945532
0001c0 4f 48 b8 bd 12 e6 e8 be 12 2f 69 bf 4e f8 9b 3e
       -0.08998167 -0.4548803 -0.9108745 0.3046288
0001d0 f1 5d 1c 3d 2b 60 09 3e c3 a3 50 be 45 69 38 3e
       0.038175527 0.13415591 -0.2037497 0.18008907
0001e0 1e 2f e4 be d8 22 54 ba db d7 0d 3f 9e d5 1b bd
       -0.44567198 -0.00080923503 0.55407494 -0.038045518
0001f0 2f 7c 03 bc 69 e8 87 be 1a 8d ca 3e 37 ad 8a be
       -0.008025213 -0.26544502 0.39560777 -0.27085277
000200 93 c4 a5 3e 73 5b 73 3d 88 70 0b 3f 05 26 47 be
       0.32376537 0.059413385 0.54468584 -0.19448097
000210 f9 76 ab be ca b7 58 be 2a 4b e1 3d 04 8f f6 3d
       -0.33489206 -0.2116386 0.110006645 0.12038997
000220 72 99 17 be 0b a9 28 3d 6a 1f b7 bd 93 28 b2 3e
       -0.14804628 0.041176837 -0.08941539 0.3479658
000230 40 23 8c be dc ee 40 be f1 3c ad 3d 57 2d 8d be
       -0.27370644 -0.18841118 0.08458889 -0.27573654
000240 42 a6 6d be 2d 98 86 3d 72 3e b4 3e d9 e9 0a be
       -0.23207954 0.06571994 0.35203892 -0.13565768
000250 4a 72 66 3e 6f 92 32 3d 43 03 df 3c 2e af a5 3d
       0.22504535 0.04359668 0.027223235 0.080900535
000260 4b c1 08 3f 01 82 87 3e 86 e4 2d 3e 67 63 48 3c
       0.5341994 0.26466373 0.16981706 0.012230731
000270 11 7d de 3d cc 3a b9 3e 9a d4 a4 3d f4 6d 63 bc
       0.10863698 0.3617767 0.08048363 -0.013881195
000280 b3 e4 22 3f 4d 0b 48 be c6 31 a6 3e 59 62 16 3f
       0.6363022 -0.19535561 0.3245985 0.58743817
000290 67 13 99 3e a9 91 85 3c 8f 4d f2 3d fe 1b 79 3f
       0.29897615 0.016304808 0.118311994 0.9730834
0002a0 35 15 e1 be e7 00 a6 be 68 57 f7 3e fc 2c 3e 3d
       -0.43961492 -0.32422563 0.48308873 0.04642962
0002b0 34 03 28 3f 76 04 86 bd d0 8f f7 3d 54 94 8b 3e
       0.6562989 -0.065438196 0.12087977 0.27261603
0002c0 10 cc fa 3d 98 19 c3 bd 73 48 21 3f 3a cf b1 bc
       0.12245953 -0.09526366 0.63001174 -0.021705259
0002d0 2e 77 21 3e ae 7b 67 bd fd 0b c0 3c 25 df 1c 3e
       0.1576812 -0.056514435 0.023443216 0.15319498
0002e0 25 f5 f7 3e a2 af a5 be 16 9d 0b be b6 ac b8 3e
       0.48429218 -0.3236056 -0.13634142 0.36069268
0002f0 3e e0 c9 3c 3b 79 01 3d d6 59 af 3e fd 8f 8f be
       0.02464306 0.031609755 0.34248227 -0.28039542
000300 f6 5c 09 be c3 26 f5 bb 63 29 5f 3d bd 23 b4 3c
       -0.13414368 -0.0074814274 0.05448283 0.021989698
000310 f7 54 23 3e 52 31 98 be af f3 6d bc 4c 86 5d bc
       0.1595038 -0.29725128 -0.014523431 -0.013520788
000320 63 c6 0d 3e 08 c3 3e 3f 89 49 bd 3e ec 5a 16 3e
       0.1384521 0.74516344 0.36970165 0.14683121
000330 00 36 4c be 1b a3 36 bf 1a 84 a3 3e 17 19 46 3e
       -0.19942474 -0.7134263 0.31936723 0.19345509
000340 a8 b4 93 3e a6 ba 8f 3e e8 cb 42 3e b3 e4 e9 3c
       0.28848767 0.2807209 0.19023097 0.028551435
000350 bc fd ab 3d 40 08 be be fa 3a 80 bd ae fa 7b bd
       0.08398005 -0.3711567 -0.06261249 -0.061518364
000360 bb 53 a3 3d 5d 0e b9 be 79 09 9d 3c 5e 6c 7d 3d
       0.07974955 -0.3614377 0.019169556 0.061870925
000370 ff 97 c5 3d 14 ab 15 3c a4 24 c0 bd 97 6c 8f 3d
       0.096481316 0.0091350265 -0.09381989 0.07003134
000380 6a b0 5b bf 19 37 77 3d f2 6f b5 be 3e ba e6 3d
       -0.8581606 0.06035528 -0.3543697 0.11265992
000390 f9 a2 9f 3d a3 6f 64 be 81 a9 af be d8 51 82 3e
       0.077947564 -0.22308211 -0.3430901 0.25453067
0003a0 89 06 ce bd 4b 8c 8c 3e af 2f 9f 3d aa e5 34 3e
       -0.1005984 0.27450785 0.07772767 0.17665735
0003b0 e4 6f 18 3e 50 6d 32 3f 99 f9 8d 3d 69 be 2b 3e
       0.14886433 0.6969805 0.069323726 0.16771854
0003c0 70 c8 18 bc d3 bd b6 3e b1 26 7b be d0 af 5e bc
       -0.009325132 0.356917 -0.24526478 -0.013591722
0003d0 6d 06 e3 3d 87 7b a0 3d 09 6a ca 3e 52 f1 bc 3e
       0.1108521 0.07836061 0.39534023 0.36902863
0003e0 4c 8b b7 be 3b 60 2e 3d 3b 62 a4 be 43 de 95 be
       -0.35848463 0.04257224 -0.32106194 -0.29271135
0003f0 75 44 ad be 47 00 09 3f c3 58 1c be 7a 96 94 3e
       -0.3384129 0.5351605 -0.15268235 0.29021055

dynamic_gates.weight_hh f4 [256, 768]
000000 70 a0 9a 3f 02 17 2f 3e 14 fa f4 3e 6d e0 a6 bd
       1.2080212 0.1709862 0.47847044 -0.081482746
000010 92 47 67 3d 5c 39 5b be 5e 0c 08 be bf 11 1a 3e
       0.05646474 -0.214086 -0.13285968 0.15045832
000020 f4 0a 60 be 1c df 8e 3d 96 82 2d be c3 d8 8f bc
       -0.21879178 0.069761485 -0.16944346 -0.017559415
000030 45 a4 5f 3b d2 de 01 bc 55 1e 3b 3f 18 d4 63 3d
       0.0034125012 -0.00792666 0.7309316 0.05562219
000040 5f 43 1c be a3 b0 7a be ec 56 c2 3e b7 f8 c6 bc
       -0.15260075 -0.24481444 0.3795694 -0.024288518
000050 4b f0 53 be 7c e7 a8 be f3 35 57 3d 82 f9 eb 3e
       -0.20697133 -0.3298911 0.052541684 0.46088797
000060 34 d2 b1 3d 3f f4 38 3d 93 b2 67 be fb eb 12 3f
       0.08682671 0.045154806 -0.22626714 0.5739133
000070 f2 46 b6 bc b1 67 79 be c4 9f 68 3d ad be 9e 3e
       -0.022250626 -0.24355961 0.05679299 0.3100485
000080 b5 d0 f4 bd 4e 6d 69 be eb e9 d2 3c c9 11 87 be
       -0.1195387 -0.22795603 0.025746306 -0.26380756
000090 3b 6d 1b 3e 2e f5 37 bc f5 fd e4 3e 9b b1 1f bd
       0.15178387 -0.011227889 0.44725004 -0.038987737
0000a0 3a ef 93 3d 58 1d 8f be 05 9e df be 25 de a0 3c
       0.07223363 -0.27952075 -0.43675247 0.019637177
0000b0 8c b0 22 bf d2 34 9b be 89 87 b0 3d 54 38 82 be
       -0.6355064 -0.30313736 0.08619601 -0.254336
0000c0 e0 32 3c bd 4f 01 91 be 2f 60 62 be c0 09 25 be
       -0.045946956 -0.2832131 -0.22107004 -0.16117
0000d0 ce 0b e9 3e 1c 85 21 be 9b be 1e 3e b2 64 9b be
       0.4551682 -0.15773433 0.15502398 -0.30350262
0000e0 8c bc a0 bd 00 c2 14 be 83 e7 4c 3e 7d 84 03 3f
       -0.078484625 -0.1452713 0.2001019 0.51374036
0000f0 43 eb de be cd f4 5c 3d cc ca 32 3e 42 b0 97 3d
       -0.43538865 0.053944398 0.17460173 0.074066654
000100 28 a0 c1 3e 74 01 b1 bc 22 f6 0b bc 5e 6f 07 be
       0.37817502 -0.021607138 -0.008542569 -0.13226077
000110 fe 5a 06 3e f8 48 59 3d c4 46 d8 3e 34 c1 5a be
       0.13120648 0.053048104 0.4224149 -0.21362764
000120 f8 78 5c be ee e5 d7 bc c1 29 01 bf c3 88 27 be
       -0.21530521 -0.026354756 -0.50454336 -0.16360764
000130 8f e5 39 3e 4d 3c 99 ba 7c d7 0d 3e 1e 46 9c bd
       0.18153976 -0.0011690945 0.13851732 -0.07630561
000140 6c a5 07 be 12 75 12 be 6f 33 d4 be 4d 8b 24 3c
       -0.13246697 -0.14302471 -0.4144549 0.0100429775
000150 a2 74 5c bd ed 36 9a bd d3 1e 22 be 0e 41 a1 be
       -0.053822167 -0.075300075 -0.15832071 -0.31494945
000160 99 df 92 be f3 42 f1 3d af 16 af be c3 a2 10 be
       -0.28686216 0.11780348 -0.34196994 -0.14124589
000170 88 9b 5a bd fa 74 30 3f 88 d8 84 be 5c 49 ae be
       -0.053370982 0.6892849 -0.2594645 -0.34040344
000180 29 85 e4 3c c2 e3 f5 3b 56 85 a8 bd 89 77 44 3e
       0.027895527 0.0075039575 -0.08228557 0.19186224
000190 ea c7 47 3e d7 f6 5b bd b6 b2 2b bd f5 a6 99 bd
       0.19509855 -0.0537022 -0.04191848 -0.07502548
0001a0 4d ac cd be 4c 43 17 be 88 af b9 3e c0 19 c3 be
       -0.40170518 -0.14771765 0.36266732 -0.38105583
0001b0 47 71 51 bd 64 93 82 bf 37 60 d6 bd 5c e6 2d 3e
       -0.05113342 -1.020123 -0.1046757 0.16982406
0001c0 f5 33 d6 bd 44 dd 29 be 2d 6b 02 3e 29 63 e8 bd
       -0.10459129 -0.16588312 0.12736197 -0.11347038
0001d0 90 43 30 bf 6f 88 66 3e 90 de 3c bd 72 50 93 be
       -0.6885309 0.22512983 -0.04611069 -0.28772312
0001e0 4c 53 7f 3e 7e be 2e bd d9 a1 4a 3e be 28 d0 bd
       0.24934119 -0.042662136 0.19788302 -0.10164021
0001f0 54 ba f1 be ae a4 b4 3e 4d 87 81 be 3e c3 e6 bd
       -0.4721247 0.3528189 -0.2529854 -0.11267708
000200 71 5a a8 be 3d a2 8c be d4 ed 2b bf 7e 0e a4 3e
       -0.328815 -0.27467528 -0.6715977 0.32042307
000210 47 e9 13 be d9 30 55 3d 8c 5a 01 be 3e 3f d2 3d
       -0.14444457 0.052048538 -0.12632197 0.10265969
000220 1c cb 7f bc f2 57 70 be fd 20 d2 bd 1b fc 33 3e
       -0.01561239 -0.23471048 -0.10260198 0.1757664
000230 ca b9 65 be 78 4f 9e be 89 33 bf 3c 00 66 90 bd
       -0.22434154 -0.30920005 0.023340004 -0.07050705
000240 82 4e 67 be 1d 84 e9 bd 11 6a 86 3e 6a f8 a7 be
       -0.22588542 -0.11402152 0.26252797 -0.32806712
000250 58 63 94 be 62 4b 61 be d5 c0 8d be 68 ad 07 bf
       -0.28982043 -0.22001413 -0.27686182 -0.5299897
000260 94 b0 a8 3c 3d c0 56 3e c6 80 75 be ab b6 30 be
       0.020592012 0.2097177 -0.23974904 -0.17257182
000270 d9 16 c8 3c 8a 74 07 bf 1b 2e f2 3d 26 64 09 3e
       0.024424957 -0.529122 0.118252 0.1341711
000280 e8 ee dd be e1 c3 f0 be 7d eb c5 3e 22 e3 25 bd
       -0.43346334 -0.47024444 0.38656226 -0.040499814
000290 e3 61 b7 be 77 2a 4a bc 7d c9 1b bc 99 a0 6e be
       -0.3581687 -0.012339226 -0.009508488 -0.2330345
0002a0 23 b7 7a be f4 93 01 3e 83 24 78 bd 63 6f 37 3e
       -0.24483924 0.12654096 -0.060581695 0.17913584
0002b0 8b 98 82 3e 51 0d e9 bc 7a 44 17 3e 5e 2d 10 be
       0.25507006 -0.028448733 0.14772215 -0.14079806
0002c0 04 a5 6d bd d0 f0 d7 bd b0 27 6d 3d 00 a3 23 be
       -0.0580187 -0.10543978 0.057899177 -0.15980148
0002d0 f1 b9 fc 3c c7 14 e2 be f2 b4 c8 3d 06 00 be 3d
       0.030850383 -0.44156477 0.098001376 0.09277348
0002e0 d6 52 b1 be 59 2f 4e 3b 03 bb f4 be 34 aa b7 3c
       -0.3463351 0.0031461327 -0.4779893 0.022420026
0002f0 23 44 b1 3e 50 ce d9 bd 55 0e 96 be 96 0f 38 be
       0.34622297 -0.10635054 -0.2930781 -0.17974696
000300 76 4e d2 be 8a 0e f7 3d 7c 29 6b be 10 0b f0 3e
       -0.41075486 0.1206332 -0.22965044 0.4688344
000310 fc bf 53 3e 3d c2 36 be 8d a4 1d be 16 71 82 3d
       0.20678705 -0.17847534 -0.15394802 0.06369226
000320 5e 00 1b 3d 05 d7 2d bf 98 83 68 be e1 e9 3a bd
       0.037842147 -0.6790622 -0.22706449 -0.0456332
000330 b9 c8 35 bd b3 9b 6a be 2f eb 0f be 85 9a 8a 3e
       -0.044380877 -0.22910957 -0.14054559 0.27071014
000340 39 38 58 be ce a0 3e 3e 64 54 69 be 2c 44 8e be
       -0.21115197 0.1861603 -0.22786099 -0.27786386
000350 f7 ed a8 bd 22 c5 5a 3e e5 d2 74 3d e1 ff 20 bd
       -0.08248513 0.21364263 0.059771437 -0.039306525
000360 b2 5d 41 3e 91 62 a6 bd 41 4a 9a bd 8f 61 2c be
       0.18883398 -0.08124269 -0.07533694 -0.1683409
000370 10 4f 0d be 27 34 cc bd c8 99 85 3e 03 46 a5 3e
       -0.13799691 -0.09970885 0.26093888 0.32279977
000380 fb 64 29 3e 2c f7 c1 3e 0d 77 7d 3e aa c9 7c bd
       0.16542427 0.3788389 0.24752446 -0.06171576
000390 03 e2 8e 3e 54 7d e7 bd ab 31 81 bd 48 23 9f bc
       0.27906808 -0.11303201 -0.063083015 -0.019426003
0003a0 fc a9 4e bd 63 16 cd 3d 4c fb 2a 3c d3 aa 82 3d
       -0.05045508 0.100140356 0.01043589 0.063802384
0003b0 c1 82 5d 3d 45 47 ed be e6 44 dd 3e 66 6a 0f be
       0.054079775 -0.46343437 0.43216628 -0.14005432
0003c0 fd 45 b2 3b 97 f0 88 be 8a ba 89 be c1 43 9b bd
       0.005440472 -0.26746055 -0.2690013 -0.075812824
0003d0 e0 c1 1a 3e 3d e4 f5 bd 39 83 ba 3c d1 fb 93 be
       0.1511302 -0.120064236 0.02276765 -0.28903058
0003e0 47 dc 49 3f ff bf 54 bd 64 de 3f bd eb b7 5b be
       0.7885174 -0.051940914 -0.046842948 -0.21456878
0003f0 ec ff 9e bd f8 00 4b bd fa 3f 09 be 6e 32 9e be
       -0.07763657 -0.04956147 -0.13403311 -0.3089785

dynamic_gates.bias f4 [768]
000000 43 a7 c2 40 51 fa bd 40 9a bb ba 40 89 82 ba 40
       6.0829177 5.936806 5.8354006 5.8284345
000010 a6 eb bf 40 bb 9c c1 40 44 bf c0 40 54 2c b3 40
       5.9975157 6.050382 6.023348 5.599161
000020 39 ee be 40 d5 c8 b8 40 b0 12 b9 40 13 ab bd 40
       5.96658 5.7745156 5.783531 5.927133
000030 25 ef b3 40 09 bc c5 40 6f 42 bd 40 5e 11 b8 40
       5.6229424 6.1792035 5.9143596 5.75212
000040 3c d5 c1 40 dd 39 be 40 0d 48 b7 40 d3 e5 c1 40
       6.0572796 5.9445634 5.7275453 6.0593047
000050 fa 1b c5 40 ff a2 c0 40 37 b6 bc 40 f7 b5 bc 40
       6.159665 6.019897 5.897243 5.8972125
000060 35 f0 c3 40 fe 9e bc 40 9a 86 bc 40 c9 93 ba 40
       6.123072 5.894408 5.891431 5.83054
000070 3a ce c6 40 4b 01 c0 40 76 3b be 40 1e 52 be 40
       6.212674 6.000158 5.9447584 5.947524
000080 c2 fd b9 40 cd de b9 40 16 09 ca 40 8e ee b2 40
       5.8122263 5.8084474 6.313609 5.5916204
000090 60 53 af 40 2e 63 bc 40 50 9d b8 40 4d 79 ba 40
       5.4789276 5.887107 5.769203 5.827307
0000a0 4c a4 c5 40 a8 76 b8 40 63 98 b5 40 f0 b4 bc 40
       6.176306 5.7644844 5.674852 5.897087
0000b0 52 09 b9 40 bc 2d b8 40 aa 03 c4 40 10 dc bb 40
       5.7823877 5.755583 6.1254473 5.870613
0000c0 9e a8 c8 40 5d c9 c0 40 b4 f5 bd 40 36 c5 c0 40
       6.270583 6.0245805 5.936243 6.0240736
0000d0 10 97 b9 40 fe 00 c5 40 df 07 bd 40 65 b6 ba 40
       5.7996902 6.156371 5.907211 5.834765
0000e0 ca b8 bf 40 af 3f c8 40 48 ab bc 40 5e 20 b9 40
       5.9913073 6.257774 5.8959084 5.785201
0000f0 9b be bc 40 55 a2 c3 40 34 1b ba 40 fd 18 bc 40
       5.8982673 6.113566 5.8158207 5.8780503
000100 de 90 c1 40 3a 9a ba 40 20 22 c1 40 5d 76 c8 40
       6.048934 5.8313265 6.0354156 6.2644486
000110 b7 b6 c3 40 7b f6 bc 40 28 5b b2 40 7f df b5 40
       6.116054 5.905088 5.5736275 5.683532
000120 48 e2 c1 40 c3 da c2 40 c2 8b c0 40 4e 47 c2 40
       6.058872 6.0892043 6.0170603 6.071204
000130 ee 88 bb 40 3b 7d c3 40 ee 57 c2 40 11 bf c5 40
       5.860465 6.109037 6.0732336 6.1795735
000140 a8 a4 b2 40 2b 88 c3 40 d4 05 ba 40 af 40 c2 40
       5.5825996 6.110372 5.8132114 6.070396
000150 71 78 c5 40 88 e1 c0 40 29 a1 ba 40 f8 10 ba 40
       6.1709523 6.0275307 5.832173 5.8145714
000160 83 6b c0 40 c8 5f c4 40 d4 af c0 40 3e 35 d0 40
       6.013124 6.136692 6.0214634 6.5064993
000170 88 ba bf 40 e2 aa bb 40 e6 15 c3 40 57 be b8 40
       5.99152 5.8646097 6.096423 5.773235
000180 f0 a2 be 40 88 98 bb 40 44 59 b8 40 f4 1f bc 40
       5.95739 5.8623695 5.7608967 5.8789005
000190 d0 0a b9 40 3c 05 bd 40 36 66 bf 40 36 cc c8 40
       5.78257 5.906889 5.981227 6.274928
0001a0 cb 58 c4 40 b3 c0 c2 40 2d 50 be 40 b5 44 b9 40
       6.135839 6.086023 5.947287 5.789637
0001b0 4b 2f c4 40 9a 40 b8 40 23 52 bc 40 96 65 b7 40
       6.130773 5.757886 5.8850265 5.7311506
0001c0 be 3d c3 40 12 aa bd 40 17 20 b9 40 7a 90 bb 40
       6.101287 5.9270105 5.785167 5.8613863
0001d0 db b7 c2 40 cd b4 c0 40 5f 5c c8 40 40 31 c1 40
       6.0849433 6.0220704 6.261276 6.037262
0001e0 f1 86 bc 40 26 81 be 40 f6 dd b8 40 59 84 c3 40
       5.8914723 5.953265 5.777095 6.1099057
0001f0 63 bc bf 40 5d 00 b8 40 78 11 ba 40 12 02 cf 40
       5.9917464 5.7500443 5.8146324 6.4690027
000200 99 e3 b7 40 63 fe c1 40 29 54 bb 40 f3 45 b9 40
       5.746533 6.062303 5.8540235 5.7897887
000210 64 64 bd 40 cb 07 cc 40 18 8f c1 40 40 41 bd 40
       5.9185047 6.3759513 6.0487175 5.914215
000220 c3 be c1 40 1b 6d bd 40 87 0b c4 40 52 e3 c1 40
       6.0545363 5.9195685 6.126407 6.058999
000230 da 73 c1 40 a7 ba c4 40 69 61 c6 40 09 8b c0 40
       6.045392 6.1477847 6.199391 6.016972
000240 57 ba bd 40 79 f5 c0 40 eb de ba 40 78 5d c1 40
       5.9289966 6.029965 5.8397117 6.0426598
000250 17 51 b6 40 71 9d bd 40 0c cc bd 40 b2 34 b7 40
       5.6973987 5.925469 5.931158 5.7251825
000260 e6 18 bf 40 9a 43 c6 40 3e ae b5 40 7c 4c c1 40
       5.9717894 6.195752 5.67752 6.0405865
000270 05 09 c3 40 1c c0 b6 40 2b bd be 40 1f 3f bc 40
       6.094851 5.710951 5.960592 5.882705
000280 57 3b b9 40 18 83 bb 40 94 73 ba 40 3f 40 b8 40
       5.7884936 5.8597527 5.8266087 5.7578425
000290 c0 9a ba 40 6f 56 c0 40 e3 16 c1 40 68 62 b9 40
       5.8313904 6.010551 6.034044 5.7932625
0002a0 7c 2d c1 40 e1 62 c2 40 dd a5 c1 40 e6 0a c4 40
       6.0368023 6.07457 6.051497 6.1263304
0002b0 9e e7 b6 40 8f 12 c4 40 68 6a be 40 fd 2d b9 40
       5.7157736 6.1272655 5.950489 5.786864
0002c0 85 da c7 40 a6 ca bf 40 6d 42 ba 40 63 28 c3 40
       6.2454247 5.9934874 5.8206086 6.09868
0002d0 7e 83 b8 40 05 92 b6 40 55 86 be 40 da 17 c1 40
       5.7660513 5.7053246 5.953898 6.0341616
0002e0 3d 17 b9 40 56 8f c5 40 6c 9b bd 40 33 97 bc 40
       5.7840867 6.173747 5.9252224 5.893457
0002f0 73 b4 b9 40 3a b7 bc 40 49 47 ba 40 98 3f b3 40
       5.8032775 5.8973665 5.821202 5.601513
000300 07 f6 c0 40 ff 9d be 40 56 96 b8 40 6d 31 ba 40
       6.0300326 5.9567866 5.7683516 5.8185334
000310 c0 79 c3 40 b2 a6 aa 40 1d 30 c0 40 28 83 bf 40
       6.108612 5.3328485 6.005873 5.9847603
000320 d6 93 bd 40 a3 2b b9 40 df ee ba 40 29 a9 be 40
       5.9242964 5.7865767 5.841659 5.9581494
000330 45 35 c2 40 46 7d c2 40 b0 10 b9 40 37 5e be 40
       6.0690026 6.077792 5.783287 5.949001
000340 89 00 be 40 9a 8f b5 40 7b 95 b7 40 21 e4 ca 40
       5.9375653 5.6737795 5.736997 6.340348
000350 a0 be bf 40 26 ab c4 40 82 1a be 40 af c8 c2 40
       5.9920197 6.145892 5.940736 6.0869975
000360 0b 7d c3 40 a3 cb c2 40 11 ea be 40 15 c1 c1 40
       6.109014 6.087358 5.9660726 6.0548196
000370 e7 94 bb 40 36 c7 bf 40 db 4c c8 40 63 7f c4 40
       5.8619266 5.9930677 6.259382 6.14055
000380 33 b6 bb 40 59 aa b5 40 ca 12 c8 40 b3 d4 be 40
       5.865991 5.6770444 6.2522936 5.9634643
000390 6f d2 c0 40 54 a3 b9 40 bf 88 c1 40 ba 27 bd 40
       6.0256877 5.8011875 6.0479426 5.9110994
0003a0 58 9f c8 40 80 7d b9 40 58 0d c2 40 c6 28 c8 40
       6.269451 5.79657 6.064129 6.254977
0003b0 7f 0b bf 40 f9 b2 b6 40 19 3c c0 40 72 9e c2 40
       5.9701533 5.7093472 6.007336 6.0818415
0003c0 e4 38 c3 40 cc 43 bd 40 26 a5 be 40 a8 73 c8 40
       6.1006947 5.914526 5.9576597 6.264118
0003d0 a9 f0 b8 40 9f 2e be 40 5f 8c bd 40 96 e2 b8 40
       5.7793775 5.943191 5.923385 5.7776594
0003e0 ad 44 c2 40 b4 3e c0 40 e0 be c6 40 08 5d c0 40
       6.0708833 6.007654 6.2108 6.0113564
0003f0 dd 39 bc 40 d6 94 b9 40 df 4a bb 40 10 f8 bc 40
       5.8820634 5.7994184 5.8528895 5.905281

head.net.0.weight f4 [1, 256]
000000 13 fb 0e 3f af 5e 56 3c b9 e8 ce 39 44 c0 91 ba
       0.5585186 0.013084098 0.00039464774 -0.0011119922
000010 fb d8 05 bf 5a 7b c2 b9 c2 00 46 3c 0e 87 14 40
       -0.5228421 -0.00037094468 0.012085142 2.320743
000020 83 55 ea b8 b1 f7 c3 bd 4f 72 a9 bd 57 5b e5 3b
       -0.00011173917 -0.09568728 -0.08273756 0.006999414
000030 e9 62 a4 3d 14 a2 17 bf a9 e6 36 be 98 a0 a0 bc
       0.08026678 -0.59231687 -0.17861427 -0.019607827
000040 e5 16 e8 bd 84 dd 23 36 d3 92 b1 ba fe 85 98 3e
       -0.11332492 2.4417832e-06 -0.0013547785 0.29789728
000050 59 0d 27 ba 80 9b 57 bd bb 76 a6 3e 15 cb 7f ba
       -0.00063725334 -0.05263853 0.3251246 -0.00097577396
000060 91 8d f4 be 97 ba 97 bd 85 89 f0 bb 7a 14 38 b7
       -0.47764257 -0.07408636 -0.0073406124 -1.0972022e-05
000070 14 3e 1c 3e 60 fc 14 3c ee fa 17 3f 0b 43 8b bc
       0.15258056 0.009093374 0.59367263 -0.016999742
000080 a8 ea 1d 3f 92 5f 92 bc 3a 6b 66 be 23 c2 27 3f
       0.6168618 -0.017867837 -0.22501841 0.65530604
000090 3d d4 64 38 86 ef 34 ba ef 24 24 be db 9c 44 3f
       5.45571e-05 -0.0006902147 -0.16029714 0.7680184
0000a0 d6 7f 8b 3e f3 1c c2 39 86 f0 8c 3e 18 90 0b 3d
       0.2724597 0.00037024132 0.27527255 0.034072965
0000b0 ef 6b 3e 3f 3c b6 ae 3c c9 2b 63 3d b7 19 b8 b9
       0.74383444 0.02132713 0.05546168 -0.00035114374
0000c0 bd 6c 7b 3f b5 b9 de be 54 26 ba bc 50 48 13 3b
       0.98212796 -0.43501058 -0.022723354 0.0022473522
0000d0 9b 22 2e bb 14 87 60 3f d5 26 48 be 4a c9 55 be
       -0.002657092 0.8770611 -0.19546063 -0.20877567
0000e0 4f c6 90 bc 9f 40 4f bf 46 af 9b be 52 56 8e 3d
       -0.017672686 -0.8095798 -0.3040716 0.06950058
0000f0 a7 1e 1f ba 00 19 b3 b9 99 c6 1c bb 86 8a f6 3e
       -0.0006069936 -0.00034160167 -0.0023922084 0.4815256
000100 eb 11 d7 bd 7c d8 cb bb 05 fa ce 3e 0d ba b9 be
       -0.105014645 -0.0062208753 0.40425125 -0.36274758
000110 00 af 43 3e 30 ae c8 be cd 03 90 3e 4b 56 4f bf
       0.19109726 -0.39195395 0.281279 -0.8099105
000120 10 c8 9f 3e c3 73 c1 3e 94 49 a8 39 af 07 38 39
       0.31207323 0.37783632 0.00032098277 0.0001755047
000130 c1 6e 99 ba eb 54 8d bc 37 8e a5 3d c9 3e cf 3d
       -0.0011705981 -0.017252406 0.08083766 0.10119397
000140 f6 b8 9f 39 bf 60 77 bb ce 51 d3 3e 7b d1 5b 3e
       0.0003046465 -0.0037746874 0.4127335 0.21466629
000150 57 66 cd be 21 d3 97 bb 10 51 26 b8 9c cd 99 3a
       -0.40117142 -0.004633323 -3.965298e-05 0.001173425
000160 95 2f 8a bb cd 24 99 be 72 f2 df 3e 99 c8 52 be
       -0.004217098 -0.2991089 0.4373966 -0.20584334
000170 9b ee 58 ba 23 4d 86 3f de b6 b8 3b 54 a6 0f bf
       -0.0008275301 1.049229 0.005637034 -0.5611317
000180 4e 35 ac 3d d0 5a 5c ba e1 cf bb ba 60 38 ea 3d
       0.084086046 -0.0008405866 -0.001432892 0.11436534
000190 e1 f6 a3 bf 02 e7 ae bf f9 d4 10 bf c7 6f 06 bf
       -1.2809716 -1.3664248 -0.5657497 -0.5251431
0001a0 bd 62 43 ba 9a dd b4 3c a3 9f c9 bc 8b 77 8c bd
       -0.0007453373 0.022078324 -0.024612254 -0.068587385
0001b0 17 38 c0 bd 21 e6 a3 3c cb e4 ef 3e 4e 9e bb bb
       -0.09385698 0.020007195 0.46854243 -0.0057256585
0001c0 54 ae b5 3b 13 6c 65 b9 1f 92 ac 3c 98 2a 46 bf
       0.005544463 -0.00021879403 0.02106577 -0.7740874
0001d0 a2 db 6e bd 72 6c 4d be b1 f5 2b bd 2a cd b3 bd
       -0.058314927 -0.200609 -0.041982356 -0.08779366
0001e0 65 53 12 3c b2 73 8b 3e 3f 6e f0 3b e7 58 1b 3f
       0.008931016 0.27236706 0.007337361 0.6068253
0001f0 87 96 bb bd f9 c0 83 bc c9 43 cc 3c 62 d8 0e bf
       -0.0915957 -0.016083227 0.024934666 -0.55798924
000200 99 40 aa b9 8a 65 d3 3c 80 0b fb ba 66 5e e4 b7
       -0.00032473056 0.025805254 -0.0019153208 -2.7223676e-05
000210 df b0 4d 3e c7 f5 ff 3e 78 f4 fa 3e 81 05 43 bf
       0.20087002 0.499922 0.4901464 -0.76180273
000220 6b a8 25 3e 0e 81 f5 3c 14 29 5d bd ca 7b 40 3b
       0.16177528 0.029968765 -0.053994253 0.002937066
000230 08 b1 07 3f ba ec e3 3e 1d 31 50 3b dc 1a 20 3f
       0.53004503 0.44516546 0.0031767555 0.62540984
000240 3a 0f 03 3b b9 99 e3 3e 68 01 e3 bb 92 01 51 bc
       0.001999809 0.4445322 -0.006927658 -0.012756722
000250 c9 37 ac ba 10 84 9c 3e 9a 60 b1 be 9d 9f 97 3b
       -0.0013139184 0.30569506 -0.34644014 0.0046271817
000260 6f fa b2 be 2e 8b 03 3b cb 96 8f 3d 5c e8 b8 39
       -0.3495669 0.0020071971 0.07011183 0.00035268336
000270 fb 37 57 3e 08 72 15 bb 04 6e 3f 3f bc cb 3d 3d
       0.21017449 -0.0022803564 0.74777246 0.046336874
000280 51 0c cd b9 88 08 9e 3c 3d 67 46 38 9a ab 73 3c
       -0.00039109823 0.019291177 4.7303027e-05 0.014872456
000290 8a 63 1e 39 42 d2 53 bd 60 04 8e 3e c0 73 9a 3f
       0.00015105135 -0.05171419 0.27737713 1.2066574
0002a0 3d 3a c6 bd 1b 41 9c 3c 38 5f 37 3f fe 4e d2 be
       -0.09679077 0.019074013 0.7162967 -0.4107589
0002b0 7f 20 cb bb d8 00 c8 3e 75 47 29 3c 2b da 23 3f
       -0.006198942 0.39063144 0.010331978 0.6400477
0002c0 aa a5 18 3e 0b f8 db be 9e 9a 42 3f c7 80 7a 3f
       0.14906946 -0.4296268 0.7601718 0.9785275
0002d0 61 3e 00 3f bf 60 c0 3b 3f 9d 4a bc a4 4f 0d bf
       0.5009518 0.005870908 -0.012366592 -0.55199647
0002e0 6c b2 b7 3e e5 2c 0a 3f 2b de 2a 3f eb d7 03 bf
       0.35878313 0.53974754 0.6674525 -0.5150134
0002f0 37 d4 2e bd 13 b6 86 3e f5 ac c9 bb b4 d3 13 be
       -0.042682853 0.26310787 -0.0061546513 -0.14436227
000300 0a 6d f4 b9 f2 cd 9a bb a8 ef 08 bf e6 b2 f7 bd
       -0.00046620547 -0.0047242576 -0.53490686 -0.12094669
000310 4c b1 23 3c 23 d8 b4 bf 0b 83 e7 be 0a 8d ac be
       0.009991001 -1.412846 -0.45217165 -0.33701354
000320 03 d7 c7 bd d6 f4 1d 3a cb f3 84 3b 2a bd 42 3d
       -0.09757807 0.0006025558 0.0040573827 0.047543682
000330 93 60 eb ba 0e 8d 84 3e da f0 9b b9 9d 6c 11 be
       -0.0017957859 0.25888866 -0.00029743352 -0.14201589
000340 34 b4 b7 be 77 b3 51 3b 73 23 11 ba b1 f1 fd be
       -0.35879672 0.0031997839 -0.00055365934 -0.49598458
000350 6e de 08 b9 1e cf b2 3e 3d 71 62 bf 9b 13 f1 3c
       -0.00013052832 0.34923643 -0.8845404 0.029428294
000360 5d 01 9a ba 97 b9 1f ba 3e 2c 9b bd 52 d6 d8 bb
       -0.0011749674 -0.00060930237 -0.07576798 -0.006617346
000370 4c 76 57 bf b8 21 2c 3f 5f a0 f3 3e 91 fe 62 bd
       -0.8416488 0.6723895 0.4758329 -0.055418555
000380 a4 73 05 3f 76 60 c4 3c 46 83 b5 b9 22 73 df bc
       0.5212958 0.023971777 -0.00034620817 -0.02727658
000390 49 b8 2c 3e 23 78 93 3c 2e d8 e1 3c a7 37 f7 3c
       0.16867174 0.018001622 0.027568903 0.030177904
0003a0 6e 8c 90 3e 43 99 ac 3a 44 e7 96 3e b0 6e 99 bc
       0.2823214 0.0013168234 0.29473317 -0.018729538
0003b0 dd e2 c2 3c 18 c0 92 3b b5 9e ad 3e 26 67 4f bb
       0.023789817 0.0044784658 0.33910146 -0.0031647175
0003c0 95 56 80 3d 46 c1 07 3f 56 bc ff 3e 97 99 57 be
       0.06266514 0.53029287 0.49948376 -0.21054684
0003d0 28 91 ca be 99 ce f5 be 7a 77 7a 3b cc 5b 3c ba
       -0.3956387 -0.48009184 0.0038218186 -0.00071853097
0003e0 b1 82 fb be c6 38 37 be 6b 5a 3f 3d be 7a 08 bf
       -0.49123147 -0.17892751 0.04671709 -0.5331229
0003f0 94 f8 d9 bb cd c7 ef 3c 0c b3 3b bf cb 58 10 be
       -0.0066519473 0.029270077 -0.7332008 -0.14096372
