runs/Maurer_CAMELS/model_epoch030.pt (torch, 835923 bytes, 6 tensors)

input_gate.weight f4 [256, 26]
000000 8d 7a 19 3f 84 d5 8f 3c 37 c1 5a 3e 7d d7 3c 3c
       0.5995262 0.017557867 0.21362768 0.011525986
000010 20 07 b3 3d 3a a3 8e 3e c5 34 5e 3e 4d a3 99 3d
       0.08741593 0.27858907 0.21699817 0.0750185
000020 b8 ee f9 3e fa 25 f2 3d 31 7b 26 be 42 8d 14 be
       0.4881494 0.1182365 -0.16257931 -0.1450701
000030 fb 97 f7 3e ad 62 b6 3e 68 71 f0 bd 3b d8 63 be
       0.4835814 0.3562216 -0.117403805 -0.22250454
000040 8a 57 ee 3d ae 55 88 3d 9c 2b 5e be 59 7f b6 3e
       0.116377905 0.06656967 -0.21696323 0.35644034
000050 fa 01 59 bd 10 fc 0e be fd 13 6e 3e 80 b8 fb be
       -0.0529804 -0.13963342 0.23249812 -0.491642
000060 ad 1e 6b be ad 97 21 be 11 54 06 bf 48 b7 1c be
       -0.2296092 -0.15780516 -0.52472025 -0.15304291
000070 98 d6 86 be bb 1c 16 bf d9 d5 d0 3e a7 45 15 3e
       -0.26335597 -0.5863759 0.40788153 0.14577352
000080 fd 7e eb 3e e3 8c 58 3c 50 2c 02 bf 17 e1 82 bd
       0.45995322 0.013217184 -0.50848866 -0.06390589
000090 4a 20 b3 3e b4 a4 38 bc eb 99 df be bd fe ba be
       0.34985572 -0.011269737 -0.43672118 -0.36522475
0000a0 0e 4c 9d 3e bd be 3c be 45 6d 96 be 79 df 9e 3e
       0.30722088 -0.18432136 -0.2938024 0.3102987
0000b0 4b dc a5 bd 19 d6 fa be 42 c8 96 3e 11 84 27 3f
       -0.08098658 -0.4899147 0.2944966 0.6543589
0000c0 91 42 bc bd 70 f4 7d be 03 9c cd be 28 80 5a 3d
       -0.09192384 -0.24800277 -0.4015809 0.053344876
0000d0 8b 25 9d 3e b0 40 4c 3e f6 bb 78 bd 45 8b 02 3e
       0.30692706 0.19946551 -0.06072613 0.1274844
0000e0 72 df f7 3d ac 8d 75 be 51 9e 03 3e a5 f2 5d be
       0.12103166 -0.23979825 0.12853362 -0.21674593
0000f0 c6 48 9c 3e 73 3b bf bd f5 52 25 bf d6 9d b4 be
       0.30524272 -0.09337511 -0.6457971 -0.3527667
000100 95 ef be 3e 43 4f 5d 3d eb a0 2e bf 65 4b 01 bf
       0.37292162 0.054030668 -0.6821429 -0.5050567
000110 ed fb b3 3e 1c fb 4c be 7e a3 1d bd 3d 38 ad 3e
       0.35153142 -0.20017666 -0.038485996 0.3383197
000120 54 13 6d 3e 05 45 e1 be b0 1b 0c 3e eb c4 4c 3e
       0.23151904 -0.4399797 0.13682437 0.19996993
000130 c1 b0 8c 3e b6 fa 90 bd 41 3e bd 3b 41 9b bc 3e
       0.27478603 -0.07079069 0.0057752435 0.368372
000140 3d c9 16 3f 0a 32 2f be db 52 75 be c6 bd a7 be
       0.58900815 -0.17108932 -0.23957388 -0.32761973
000150 b4 52 d5 be 84 bb 8a 3e 98 4e 32 3f 54 6f 13 3e
       -0.4166466 0.27096188 0.69651175 0.14397937
000160 f8 25 46 bf ca 7a 43 3e 77 c6 e4 3e fd 31 f2 3e
       -0.77401686 0.19089809 0.44682667 0.47303763
000170 16 f4 c5 3e fb 18 27 3f 8e e8 0a bf a0 7a ad bc
       0.38662785 0.6527249 -0.542611 -0.021176636
000180 73 bd 57 3e fb 31 0f bf 35 1f 9d 3d 7d 2d 12 bf
       0.21068363 -0.5593564 0.07671968 -0.5710066
000190 d0 40 4d 3b 15 47 58 3e a3 85 b1 3e 36 6d 00 3d
       0.003131915 0.21120866 0.3467227 0.03135415
0001a0 d0 5c 92 3e 44 08 c0 3e c2 6e af 3e 9d c5 58 3d
       0.28586435 0.37506306 0.3426419 0.052922834
0001b0 44 54 d4 bc 4a 44 0b bf 9f 7d 36 3e 5a 48 11 3e
       -0.025919087 -0.54401076 0.17821358 0.14187756
0001c0 b8 30 bd 3d b0 37 a4 be f8 6b 92 be 2b 0c 97 3e
       0.09237808 -0.32073736 -0.28598 0.2950147
0001d0 67 45 a3 bd 2c ac b9 be d1 9d 78 3e 2a b6 a7 3e
       -0.07972222 -0.3626417 0.24278952 0.32756168
0001e0 80 53 d3 bc 0a a7 f5 be 0a e5 eb 3c 86 60 7f be
       -0.025796652 -0.47979003 0.028795738 -0.24939165
0001f0 f8 d3 5e be ac 63 90 be 99 25 9e be 3f 1f bd 3d
       -0.21760547 -0.28201044 -0.3088806 0.09234475
000200 4e 09 3c bd 0f 4e 3b bc ca 6d a9 3f 98 09 a9 be
       -0.04590731 -0.011432185 1.323663 -0.33015132
000210 d8 77 a9 be 63 d8 39 3f d5 a3 e2 bd 76 11 94 3d
       -0.33099246 0.72595805 -0.11066405 0.07229893
000220 01 74 55 be 6a 83 29 bf a4 05 b6 bb 7f a1 c0 3c
       -0.20845033 -0.66216147 -0.0055548716 0.023514507
000230 6d d9 e9 3d fc 60 37 be 67 4d 23 3d 4c d2 5e be
       0.11418424 -0.1790809 0.03986874 -0.2175991
000240 55 79 f2 3d d0 50 51 3c 1f d5 e8 3e c7 87 c7 3e
       0.118395485 0.012775615 0.45475098 0.38970777
000250 09 3d 0c 3e dd c0 a7 3d 44 6e be 3b 8b 04 19 be
       0.13695158 0.081910826 0.0058114845 -0.1494314
000260 51 cb 92 be ad ca 64 3e 61 56 ae 3e 7d 54 10 be
       -0.28670743 0.2234294 0.34050277 -0.1409473
000270 c5 b0 58 3d 9a c8 1d 3e 36 a8 f4 bd 43 47 b7 3e
       0.052902956 0.15408555 -0.11946146 0.35796556
000280 06 35 73 bd fd 4d 4b be 0c 66 92 be c2 4c 22 be
       -0.05937674 -0.19853969 -0.2859348 -0.15849593
000290 78 81 a4 3e 4a 3b c2 bd 4e 59 4f 3d 57 71 34 3f
       0.32130027 -0.09483965 0.050622277 0.7048544
0002a0 58 00 64 3d ea ab dd bd f7 19 93 3e b6 46 99 3e
       0.05566439 -0.10823806 0.28730747 0.2993676
0002b0 21 22 bf 3e da 08 d0 bd 2b a1 ec bd 1d f1 0c 3e
       0.37330726 -0.10157938 -0.11554178 0.13763852
0002c0 46 fd a6 bd 53 6e e0 bd db 50 02 be 28 c7 22 be
       -0.08153777 -0.10958543 -0.12726156 -0.15896285
0002d0 6b df bf 3e 95 0a 54 3c 51 dc 02 bf cb 30 a7 3e
       0.37475142 0.012941976 -0.51117426 0.32654414
0002e0 a8 87 b6 3e 1f d8 26 3e ed e6 8c 3d 3b 78 53 be
       0.35650373 0.16293381 0.06879983 -0.20651333
0002f0 ea ac 34 bd c4 96 03 3f 73 a8 92 be e0 4f 0f bf
       -0.044110216 0.51401925 -0.28644142 -0.55981255
000300 3f 20 dd 3c 71 c3 65 3d 2c d0 a5 be 22 b0 db be
       0.026992915 0.05609459 -0.32385385 -0.42907816
000310 4a 04 52 3e e1 8b 5c bd b2 a2 53 bc ad 72 50 bd
       0.20509449 -0.053844336 -0.012917208 -0.050890613
000320 94 89 c7 bb 33 53 9b be 83 f1 4b 3e 19 28 62 3e
       -0.0060893986 -0.30336913 0.19916348 0.22085609
000330 cc c5 5e be 4b 97 d0 be 66 e0 ea bd 5b df ee 3d
       -0.21755141 -0.40740427 -0.11468582 0.116636954
000340 b7 98 51 3f 35 9d 44 3e ee 02 0d 3d 51 20 c7 be
       0.8187365 0.19200595 0.034426622 -0.38891843
000350 cb fd 69 3e 8b b4 05 3e 3b a8 3e 3f 91 d6 6b 3d
       0.2285072 0.13057153 0.7447545 0.057577673
000360 3d e2 99 be b3 8d 88 bd 57 5d 19 3f ec df 1c bf
       -0.3005542 -0.06667652 0.5990805 -0.6127918
000370 23 49 2f be cc 09 22 3e 61 21 d9 3d af ab 12 bf
       -0.17117743 0.1582405 0.1060207 -0.5729322
000380 ce f3 f8 be 6b b1 55 3e 85 31 89 3e dc d1 5c 3e
       -0.48623508 0.20868461 0.26795593 0.2156443
000390 95 f9 6b be f1 5f a4 3e 3b 87 33 be 02 43 f8 3e
       -0.23044427 0.32104447 -0.17532055 0.48488623
0003a0 45 c5 e4 3d 0e fd 4c be 95 b2 01 3f 0f b9 ea 3e
       0.11170439 -0.20018408 0.5066312 0.45844314
0003b0 11 b3 f3 be 2a 6b 4e bf ba c0 d0 bd ce cb 5c be
       -0.47597554 -0.8063227 -0.1019301 -0.2156212
0003c0 5e 1d 99 be 66 57 4f be c8 8e 33 be 36 22 cb 3e
       -0.29905218 -0.20248184 -0.17534935 0.39674538
0003d0 ff 68 a1 be 72 d7 6d be a7 2c 58 3e 4d e7 02 3f
       -0.31525418 -0.23226717 0.21110784 0.51134187
0003e0 91 d0 bf be 3e 3e a3 3e 03 7b 78 3e f9 ac 8f bf
       -0.3746381 0.31883425 0.24265675 -1.1224662
0003f0 50 e2 e9 bb 96 c0 7a 3e 2b cf 98 3e db bf 03 bf
       -0.0071375743 0.24487528 0.29845557 -0.51464623

input_gate.bias f4 [256]
000000 55 d1 59 bd 1c 79 cb be a4 03 cd 3c d8 26 83 be
       -0.05317815 -0.39740837 0.02502615 -0.25615573
000010 6e 6a 03 bf 8b 02 bc be d3 97 cf be 10 25 f1 3d
       -0.51334274 -0.3672069 -0.4054552 0.11774647
000020 97 d7 bf be 0f 25 15 bf 77 0c 50 be 1f 49 a3 be
       -0.3746917 -0.5825967 -0.20317255 -0.31891724
000030 4e 0b ad 3e 49 e4 84 bf 89 bb 1c bf cb dd 12 3d
       0.33797687 -1.0382167 -0.61223656 0.03585605
000040 c1 72 77 bd b8 f8 f8 be 38 d1 73 be 3f a3 d2 3d
       -0.060412172 -0.48627257 -0.2381028 0.10285043
000050 32 b3 43 bd 95 61 8d be a5 15 2c bf d1 59 15 bf
       -0.047778316 -0.27613512 -0.67220527 -0.58340174
000060 9d 39 06 3f 54 b5 89 bd d5 e2 8c be 14 12 9e 3d
       0.5243166 -0.06724039 -0.2751681 0.07718292
000070 f8 55 db 3e ee da 03 3d a0 6d 3c be 70 0c 70 be
       0.42839026 0.03219121 -0.18401194 -0.23442245
000080 2b 80 27 bf 81 d4 30 3e f3 fa e9 be bf b9 e5 bf
       -0.65429944 0.17268564 -0.45699272 -1.794731
000090 62 4b 9e be 07 c4 0d bf d3 15 7e be 2d 53 3a be
       -0.30916888 -0.5537724 -0.24813013 -0.18195792
0000a0 f5 bd dd bc 86 b0 43 bf 31 a1 82 bd 85 a4 41 be
       -0.027068118 -0.7644123 -0.06378401 -0.18910415
0000b0 ad c1 76 bf da be a6 be 48 d1 2b 3f fe 25 1f bf
       -0.96389276 -0.32567483 0.6711621 -0.62167346
0000c0 68 6d 76 be 4c be f2 be 6a 44 22 3e 9d a4 9c 3e
       -0.24065173 -0.4741081 0.1584641 0.3059434
0000d0 eb 80 2e be 45 98 98 3e ef 6d 9a bd b9 a3 76 3e
       -0.17041366 0.29803672 -0.075404994 0.24085893
0000e0 25 78 51 bf aa a5 e5 be 64 07 4f be 5d 4e a2 3d
       -0.8182395 -0.44852954 -0.20217663 0.07925103
0000f0 bf 0c 20 bf a1 7a 94 be a1 d7 f9 3c e7 b3 60 be
       -0.6251945 -0.28999808 0.030498328 -0.21943627
000100 a6 a9 37 be c8 51 6f 3e 3e a7 fa 3e 94 ca 02 3c
       -0.1793581 0.23371041 0.4895572 0.007982869
000110 1c e3 dc bd 07 81 e1 be 9a d8 44 3e d6 42 7a be
       -0.10785505 -0.44043753 0.19223252 -0.24439558
000120 26 55 83 3d 45 ad fb 3b 8e 9c 9b 3c 91 f1 cf 3c
       0.06412725 0.0076805674 0.01899555 0.025383743
000130 a5 23 7a be 9f d4 63 be 2f 19 be 3e 1d 67 7c bd
       -0.2442766 -0.22249077 0.3712859 -0.061621774
000140 da e7 19 bd 63 6b f1 3c 11 a8 13 be 87 23 6d bf
       -0.037574627 0.029470151 -0.14419581 -0.92632335
000150 98 cf db bc 8b 47 bd 3b ae b4 67 bd 3b fc 74 3d
       -0.026832387 0.005776351 -0.056568794 0.05981086
000160 73 2b 89 bb 6f 74 67 be d1 1a 7e be 67 5b 8d bd
       -0.0041860878 -0.2260301 -0.24814917 -0.06902199
000170 8b 3a 83 bd 86 ac 06 be d6 07 00 3e 85 14 15 3e
       -0.064076506 -0.1315175 0.12502989 0.14558609
000180 78 8a e9 be 86 7c 6b bf 0e 18 b3 bf 86 30 38 3e
       -0.45613456 -0.9198688 -1.3991716 0.1798726
000190 ca 7c 6a 3d 61 02 83 be 8a ad c3 bd f1 f9 a4 be
       0.057247914 -0.25587752 -0.09554584 -0.3222194
0001a0 c4 d3 7b be 5d 1a 46 bf f9 bd 53 bf be 7d c0 3d
       -0.24592501 -0.7738398 -0.8271175 0.093989834
0001b0 04 26 56 bd 83 a1 80 be c7 96 24 bf 83 2e 54 bf
       -0.05228235 -0.25123224 -0.6429257 -0.8288347
0001c0 dc 75 9b 3d 94 19 e6 be a0 df 8a be e8 3e 0f bf
       0.07590839 -0.4494139 -0.27123737 -0.5595536
0001d0 18 2c 17 be 04 92 7d 3e 96 bd da be eb 98 3f bf
       -0.14762914 0.24762732 -0.42722768 -0.7484271
0001e0 1a db 8e be 70 83 e5 3a f8 10 08 be 0c 40 eb be
       -0.27901536 0.0017510485 -0.13287723 -0.459473
0001f0 62 86 7e 3e 32 65 13 3e f8 6d 85 3e a4 86 3a 3d
       0.2485595 0.14394072 0.26060462 0.04553856
000200 99 b4 32 be b2 c2 91 be 66 e4 98 be 77 3c e9 be
       -0.17451705 -0.28468853 -0.29861754 -0.45553944
000210 df a2 62 be 45 b9 cf bd 01 5d c5 be fc 92 db 3e
       -0.22132443 -0.10142759 -0.3854752 0.42885578
000220 b4 c9 4c bf 54 47 0f be 97 49 9f be e8 0a cd 3e
       -0.79995275 -0.13992053 -0.31110832 0.40047383
000230 08 16 f4 3c b1 ea d0 be e7 34 25 3e f9 1e 68 3d
       0.029795662 -0.40804055 0.16133462 0.056670163
000240 52 c3 8d bf d4 3a 78 be 95 93 72 bc 1c ff 0f be
       -1.1075232 -0.24241191 -0.014805694 -0.1406216
000250 17 f9 e8 3d 5d 4f 8f 3d 77 0a 4c bd bf 1d 3c be
       0.11375635 0.06997559 -0.049814668 -0.18370722
000260 f5 b9 60 be b0 13 dd bd f6 27 12 be f9 4e fa 3a
       -0.21945937 -0.10794771 -0.14273056 0.0019097022
000270 de a6 1e 3c 9d 71 1a 3e 33 12 76 bf 69 58 be 3d
       0.009683339 0.15082403 -0.9612152 0.09294207
000280 59 03 71 be 87 ea 3a be 0f 72 d3 be 11 86 43 3e
       -0.23536433 -0.18253528 -0.41297957 0.19094111
000290 95 62 e5 be 63 5a 70 be 05 03 ae be aa 83 8b be
       -0.44801775 -0.2347198 -0.3398668 -0.2724889
0002a0 45 8b 51 be d7 fc 08 bf f5 1f 21 be 59 e8 37 3c
       -0.20463283 -0.53510803 -0.15734847 0.01122483
0002b0 e7 15 86 bd 37 d9 bf 3e 1c 7c 80 3e 85 90 26 3e
       -0.06547146 0.3747041 0.25094688 0.16266067
0002c0 d5 db 32 bf b1 b2 9f 3a 03 d8 04 be 96 70 bb 3d
       -0.6986669 0.0012183991 -0.12973027 0.091523334
0002d0 4b f3 20 be 06 fb 4f bf 52 d6 8f 3e dd 90 03 bf
       -0.15717809 -0.81242406 0.280932 -0.5139292
0002e0 14 ea e0 bc 11 6b 14 bf 5b bf a4 be ea 27 97 3d
       -0.027455367 -0.5797587 -0.32177243 0.0738066
0002f0 98 47 dd be 8e 79 32 bd 1b 1b 9b be 07 fa 59 3e
       -0.43218684 -0.043572955 -0.30294117 0.21286784
000300 78 2a 2a bf 0e bd 0e bf 24 48 04 3d 1e b1 2c bf
       -0.6647105 -0.55757225 0.03229536 -0.6745776
000310 eb d6 62 be 43 1e fd 3d a2 85 0b 3e 04 1e ea be
       -0.22152297 0.123592876 0.13625196 -0.45726025
000320 f6 a1 dc be 5f 1b 05 3f 5e ca b6 bf ad 8f 9b 3e
       -0.43092316 0.5199489 -1.4280508 0.30383053
000330 03 2f fb be 9a f7 bb bd a5 ee 5d bd 5e 2d 98 be
       -0.49059305 -0.091780856 -0.054182667 -0.29722112
000340 7c 23 a6 3e b5 00 da be 2c 59 4d be 14 25 53 bf
       0.32448947 -0.42578664 -0.20053548 -0.8247845
000350 92 81 63 be e1 f8 33 3e b2 da 6a bf 2a 44 9e 3e
       -0.22217396 0.17575409 -0.9173995 0.3091138
000360 3b 63 90 be d5 cb 4d be 29 da b9 3b 62 21 f1 be
       -0.28200707 -0.20097287 0.0056717587 -0.47095782
000370 d8 f8 25 3e 1d 8f 52 3c 29 7c 82 be 38 00 51 bf
       0.16208208 0.012851504 -0.25485352 -0.8164096
000380 34 54 1a bf c3 0e 06 bf db a3 78 bf 6a ec 18 bd
       -0.60284734 -0.52366275 -0.97125024 -0.037334837
000390 8e 7f ef be a7 23 f5 be 14 f3 a5 be c1 b4 34 bd
       -0.46777004 -0.47878763 -0.32412016 -0.044117693
0003a0 e7 f5 4d be 1a 25 9f bf 56 29 b6 be 81 6a b5 bc
       -0.20113336 -1.2433197 -0.35578412 -0.022145512
0003b0 65 ae 2a 3e 9a 68 a2 be fb 18 77 be 02 0f e8 bd
       0.16668089 -0.3172043 -0.24130623 -0.113309875
0003c0 f3 e3 0f be 8b ae a1 bd 47 6e 80 3e ac 52 2f be
       -0.140518 -0.078946196 0.25084135 -0.1712138
0003d0 82 37 31 be c3 7c 96 be db ba 94 3e 91 fc 77 3a
       -0.17306331 -0.2939206 0.2904881 0.00094599376
0003e0 66 e5 61 3e 27 5e d9 be cf a2 80 be 31 75 0d be
       0.22060165 -0.42454645 -0.25124213 -0.13814236
0003f0 75 02 1f bf 16 59 de be 2b d3 60 be 6c 0d df 3e
       -0.62113124 -0.43427342 -0.21955554 0.43564928

dynamic_gates.weight_ih f4 [5, 768]
000000 21 3d 97 be 20 e0 23 be 45 59 72 be b4 78 9e 3e
       -0.29538825 -0.16003466 -0.23666866 0.30951464
000010 d4 d3 9b 3c 6e bd 48 3f b1 1d 43 be 3a 88 64 3e
       0.019021906 0.78414047 -0.19054295 0.22317591
000020 d8 5a e4 be 1c 56 ff bd ff 45 73 be 0a 0d ce bd
       -0.44600558 -0.12467596 -0.2375717 -0.10061081
000030 50 e0 08 3e 2c e1 3b 3f 0b b3 95 bf 8f 99 c6 bd
       0.13366818 0.7339046 -1.1695265 -0.09697258
000040 b6 79 3b bf 3a a7 79 bf d2 e3 90 3e 39 76 91 bd
       -0.7323259 -0.9752079 0.28298813 -0.07102627
000050 70 86 22 3e ab 63 4c bd 1f c2 99 bd a3 eb 03 bf
       0.15871596 -0.04989974 -0.07507729 -0.5153143
000060 cf 35 8a 3f 00 15 12 be 67 7e df 3e f6 d6 dc bd
       1.0797671 -0.14265823 0.43651125 -0.10783188
000070 ad 88 0f bd a9 de d5 be 1a 1c 79 3e 42 06 5b 3e
       -0.035042454 -0.4177144 0.24327126 0.21389106
000080 1d f6 36 3e 04 2b 5e be 42 51 84 3f 80 dd 87 bf
       0.17867322 -0.21696097 1.0337298 -1.0614471
000090 bb 5e e4 3e a1 1a b0 3e 82 4d 29 bf 19 85 11 3e
       0.44603524 0.34395316 -0.6613389 0.14210929
0000a0 d8 60 32 3e aa b4 1a 3f 21 16 a2 3b 76 2a 6b 3e
       0.17419755 0.6043192 0.0049464856 0.22965416
0000b0 8b 84 b0 3d d0 08 ed 3e 8e a1 a1 3e 05 2d a9 3f
       0.086190306 0.46295786 0.3156857 1.3216864
0000c0 5f 2b 2f bf 90 d8 37 3e cc b0 85 3e eb aa 22 3e
       -0.68425554 0.17953706 0.26111448 0.15885513
0000d0 51 6c c5 bd f2 25 ed bc b2 38 8a be c2 41 d0 3e
       -0.096398 -0.028948758 -0.2699638 0.4067517
0000e0 7e 65 64 3f 61 29 1f 3f b7 39 5a 3f 14 d8 eb bd
       0.89217365 0.62172514 0.85244316 -0.11515823
0000f0 cf 9e 58 be 81 67 25 3f b0 5f 2c 3f 11 d6 a2 3d
       -0.2115433 0.6461106 0.6733351 0.07950986
000100 94 b9 ba bb bb 1a 76 3e 80 ad 16 be f5 1b 9b bd
       -0.005698392 0.24033634 -0.14714622 -0.07573692
000110 2b 49 ab 3e 9b 20 5e be 88 a2 ca 3e d1 36 a0 be
       0.3345426 -0.21692125 0.39577127 -0.31291822
000120 db 8c 72 3c 0d 93 46 be 5d d5 c0 3e 8b e4 90 3e
       0.01480409 -0.19392033 0.37662783 0.28299364
000130 48 b4 79 be 73 ef 89 3e 36 93 c2 3e 0c 49 5d 3e
       -0.24385178 0.26940498 0.38002938 0.21609896
000140 95 93 27 3f af 8b 5c be 84 59 1e 3c 44 2a 28 bf
       0.6545957 -0.2153766 0.009664897 -0.6568949
000150 e0 08 e0 3d 46 2d e3 be 89 1b 41 be 0b e2 c7 3d
       0.10939193 -0.44370478 -0.1885816 0.09759911
000160 a5 cf 0e 3c c7 c7 07 bf b9 43 99 3e 02 84 80 be
       0.0087164985 -0.5303921 0.2993448 -0.25100714
000170 aa 76 1b be be c6 8b 3e de 3c e4 bd 65 ee ef 3d
       -0.15181985 0.27300066 -0.11144422 0.11715392
000180 b3 1b 1d be e3 6a 01 bf c9 eb 17 bf 11 fd a9 3e
       -0.15342598 -0.5055372 -0.59344155 0.33200887
000190 a9 78 54 be ef cb 4f bd c4 3c 0f 3f 3d 15 ab 3e
       -0.20749153 -0.050731596 0.55952096 0.3341464
0001a0 be 13 44 3f ae fe 03 bd 1a a1 ce be 56 c6 94 bd
       0.76592624 -0.032225303 -0.40357286 -0.07264392
0001b0 a3 a9 e2 3e f0 b3 78 be 4f 5f 68 be c8 b8 20 3f
       0.44270048 -0.2428739 -0.22692607 0.62781954
0001c0 93 25 ef 3e e5 19 a5 3e c5 81 fa bc b8 d3 7d bd
       0.46708354 0.32246318 -0.030579457 -0.06196949
0001d0 43 6e f4 3e ea 03 77 be b0 89 bf bb 7d b5 3a 3f
       0.47740373 -0.24122587 -0.005845271 0.7293318
0001e0 7d 26 a5 bf 84 c8 ee 3e 16 1e 07 bf 48 58 21 3f
       -1.2902371 0.46637356 -0.5278028 0.6302533
0001f0 70 d2 b8 3e ca 76 a7 3c d2 a8 a9 be a0 9a 08 3e
       0.3609805 0.020442385 -0.33136612 0.13340235
000200 67 12 35 3f db 3f c1 3e e1 81 ac 3e c9 70 8e 3e
       0.70731205 0.3774403 0.3369284 0.27820423
000210 55 dc e9 be 47 d7 15 be 11 50 e5 be 2c 42 2c be
       -0.45675912 -0.14632903 -0.44787648 -0.16822118
000220 49 e2 57 3f 59 4c 2b 3e fa 7e 21 be b1 22 41 be
       0.8432966 0.16728343 -0.15771094 -0.1886089
000230 69 8d 4c bf 3c 0b d3 3e 6e 41 17 3d a2 80 15 be
       -0.79903275 0.4121951 0.036927633 -0.14599851
000240 70 3a 2f bf 66 2b d4 3d cc 81 aa 3e 91 76 b3 3e
       -0.68448544 0.1035984 0.33302152 0.35051396
000250 fd 08 36 bf c6 88 df be 77 ce 6b 3e a1 91 a3 be
       -0.71107465 -0.43659037 0.23027979 -0.31947044
000260 8c 0c ef 3e 9a 51 11 3f e3 ea 25 3e 38 26 80 be
       0.4668926 0.5676514 0.16202883 -0.2502916
000270 97 0a 2d 3f bb 0a a1 3d 3e 5b 74 3f 84 8c 08 be
       0.67594284 0.07863375 0.95451725 -0.13334852
000280 dc 9c c8 3d df 92 ab be ed 76 5c bb 87 79 4f 3f
       0.097955436 -0.3351049 -0.0033640221 0.8104481
000290 07 11 d8 3b b9 a9 4a 3e 0b aa ce 3d 44 c6 f1 3c
       0.0065938267 0.19791307 0.10091027 0.029513486
0002a0 c6 82 6d be 44 c7 44 3e ab 9f 9e bd 84 9e a0 3d
       -0.23194417 0.19216639 -0.07745298 0.078427345
0002b0 8b 13 97 be bd 89 c9 3d ee 3f f6 be 4b fa 86 be
       -0.29507098 0.098407246 -0.4809565 -0.26362833
0002c0 2d 36 60 bf b3 dc d1 be 12 ba 8e 3e 01 e7 99 bd
       -0.87582666 -0.40988693 0.27876335 -0.075147636
0002d0 53 e9 30 3e 83 6b 25 be fe 61 cd be 18 c2 af 3e
       0.17276506 -0.16154294 -0.40113825 0.3432777
0002e0 15 44 bd 3e 34 d3 96 bd 76 25 6e bc 84 09 57 3d
       0.36966005 -0.073645025 -0.014535299 0.05249931
0002f0 f9 ec 4e 3e 7f 29 4d 3e d8 6e 3b 3e e5 4f c5 be
       0.20207585 0.20035361 0.18304002 -0.38537517
000300 2b 9b 75 bf 9b 8f f5 be 0f 2c 65 3e 78 70 1f bf
       -0.9593989 -0.47961125 0.22380088 -0.6228099
000310 14 e8 d4 3e 53 43 eb bc 90 ee 98 3d a0 46 f3 3e
       0.41583312 -0.028718626 0.07467377 0.4751482
000320 97 14 0e 3e 29 09 14 bf a2 a2 66 bf 47 ef cd 3c
       0.13875042 -0.5782648 -0.9009191 0.02513851
000330 aa 31 9b 3e 5d a5 31 bd c3 21 e9 3e ba 07 50 3f
       0.30311328 -0.043370593 0.4553357 0.8126179
000340 21 04 e0 bc d3 bf cc bf 91 40 a4 3d 13 76 f5 3e
       -0.027345719 -1.599604 0.080201276 0.47941646
000350 3b 77 06 bf d2 7f 5a 3e 19 ce dd 3e fe 24 87 3e
       -0.5252568 0.21337822 0.43321303 0.2639541
000360 ba 59 c6 3e a0 5f cf 3d 4e ab 85 3d 5b 58 a4 3d
       0.3874033 0.10125661 0.065268144 0.08024665
000370 d4 d5 72 3e d3 8f 93 be 7d 45 b2 bd 53 11 ef 3e
       0.23714381 -0.28820667 -0.0870466 0.46692905
000380 79 c7 34 3e a5 48 28 3e 0b 09 26 bd e7 db 4a 3f
       0.17654218 0.16433962 -0.040535968 0.79241794
000390 51 43 c5 be 60 59 20 be 12 1e 48 3f 73 b9 56 bd
       -0.3852792 -0.15659094 0.78170884 -0.052422952
0003a0 26 52 41 be 0f e7 98 be 46 44 02 be 31 f7 75 be
       -0.18878993 -0.29863784 -0.12721357 -0.24020077
0003b0 d7 b8 d1 3e 12 bf c3 be 90 7a 33 bf 2d 83 08 bf
       0.40961334 -0.38231713 -0.7010889 -0.5332516
0003c0 e6 e8 58 3d fc 94 4c 3e 04 eb 2b 3f 25 f1 16 bf
       0.052956484 0.19978708 0.6715548 -0.5896171
0003d0 92 d7 5e 3f 13 30 e6 be fa 01 00 be cf 80 8f 3f
       0.87047684 -0.44958553 -0.12500754 1.1211184
0003e0 e4 d8 6a bc 29 eb a5 3e ab d8 a8 3f 29 86 10 3e
       -0.014333937 0.32405975 1.3191122 0.14113678
0003f0 2c 11 49 3f d4 ee b7 3f 53 02 ed 3e e0 82 1d 3e
       0.7854183 1.436976 0.46290836 0.15381956

dynamic_gates.weight_hh f4 [256, 768]
000000 64 51 b3 3f 32 36 4d 3d 62 32 04 3e 4e 02 a8 3e
       1.4009213 0.050100513 0.12909845 0.32814258
000010 75 e0 fc bc d3 9a 35 be db 36 05 3d 0c 5f 2b bb
       -0.030868748 -0.17734842 0.032523017 -0.0026149182
000020 ff 7c 65 be b0 d1 fc bd 2f 08 68 3d 3e d6 b0 bd
       -0.22410963 -0.12344682 0.05664843 -0.086346135
000030 ee 74 0e 3e 22 df 43 bd d7 ff 91 3d 1c eb 99 3e
       0.13911793 -0.047820218 0.07128876 0.30062187
000040 ba e3 65 3d 8e f7 4e 3b e5 32 2f 3f e8 bd 35 3e
       0.05612538 0.003158066 0.68437034 0.17748225
000050 26 2a 0d 3d 2a 85 6f bd e7 d0 b4 3d 98 de be 3c
       0.034464024 -0.058476605 0.088289075 0.0232995
000060 23 01 7d 3e 81 26 a0 3e c3 5f a4 3d 59 21 8f 3e
       0.24707465 0.31279376 0.080260776 0.2795513
000070 e1 4b 8b 3e 1c 26 29 3e 43 87 02 bf fe fa e0 bd
       0.2720633 0.16518444 -0.50987643 -0.10985373
000080 db f0 de bc 28 fe 5d be 9c 5e cf bd 6a f4 8a 3d
       -0.027214458 -0.21678984 -0.10125467 0.067848995
000090 76 6a 01 bf d7 fd 25 bc 0a 7f 2d be 72 e1 5a bd
       -0.5055307 -0.010131321 -0.16942993 -0.053437658
0000a0 0d 74 57 bc 23 e9 9e be ac f9 76 3d a1 87 5a bd
       -0.013150227 -0.31037244 0.0602967 -0.053352002
0000b0 2c 44 de be c0 df a4 be c1 6e b9 be 0f 49 93 be
       -0.43411386 -0.32201958 -0.3621731 -0.28766677
0000c0 30 d6 ad 3d a6 07 4f be c9 cf 82 bd 34 2e 72 be
       0.08488119 -0.20217761 -0.06387288 -0.23650438
0000d0 8a 17 0a 3e 21 36 81 3d 3c ff 41 be e3 c3 67 3c
       0.13485542 0.063091524 -0.1894502 0.014145824
0000e0 fe 5a c8 be 53 9d 46 bd 06 e6 8d be da 66 c8 3d
       -0.39131922 -0.04848988 -0.27714556 0.097852424
0000f0 66 fd 03 3e 95 08 50 3e 16 57 c8 be 93 b0 82 3e
       0.12889633 0.20315774 -0.3912894 0.2552534
000100 01 76 51 bd cc 4b 45 bd 51 1a 2a 3e 40 a5 9d 3e
       -0.051137928 -0.04816799 0.16611601 0.30790138
000110 07 35 1b bd a8 1d 1b bf 4d 6c 1c bd 5d 6e 34 3e
       -0.037892368 -0.60592127 -0.03818922 0.17620225
000120 62 6d af 3d 9d f2 47 be 45 19 9e be 10 c5 21 bd
       0.08565785 -0.19526143 -0.30878654 -0.039494574
000130 0a f9 1a 3e f5 15 5b bf 9f 7a b4 be 2b 74 61 bd
       0.15134063 -0.8558038 -0.35249802 -0.055042427
000140 74 55 cd be 36 9d 11 3e 56 5b 4b 3e 09 3c f4 bd
       -0.40104258 0.14220127 0.1985906 -0.11925513
000150 03 f0 06 bd 0e 4b 8a bd 46 a1 ee bc 4a c0 f8 b9
       -0.032943737 -0.06752597 -0.029129636 -0.00047445513
000160 e1 3a c5 bd 80 df 81 3e 08 86 37 be f1 c1 8d 3d
       -0.09630371 0.2536583 -0.17922223 0.06921757
000170 81 da 81 be 85 fc 9a be b6 8d 1a be 80 30 21 3e
       -0.25362018 -0.30270782 -0.15093121 0.15741158
000180 f4 20 18 bc 4f 6d dd 3e 11 d0 0a be c5 92 12 3d
       -0.0092852 0.43247458 -0.13555934 0.0357845
000190 89 cd 0d be da f7 8f bb 06 c4 91 bd ef f1 1d bf
       -0.13847937 -0.00439356 -0.07117467 -0.61697286
0001a0 05 72 05 bf d1 73 e3 3b b6 3f 9b bc 38 0e c7 be
       -0.52127105 0.0069412966 -0.018951278 -0.38878036
0001b0 c0 1b d8 be b2 a8 2c 3c 44 db de 3d 0f b7 bd be
       -0.42208672 0.010538267 0.10881665 -0.37053725
0001c0 db af ba bd 1d 57 88 be 55 cf d7 bc ea bf 1d 3f
       -0.09115573 -0.26628962 -0.02634398 0.6162096
0001d0 f5 62 5a be 60 4a 0b 3d ae 61 8d be 57 d3 fd be
       -0.21326812 0.034006476 -0.27613586 -0.49575302
0001e0 21 5b d7 be a1 b9 a0 be 57 60 f4 3e 89 78 89 be
       -0.42061713 -0.31391624 0.4772975 -0.26849774
0001f0 58 1f ce 3c c8 6d c4 bc 62 59 e9 3e 31 f5 af bc
       0.02516143 -0.023978129 0.45576006 -0.021479221
000200 a2 ab c7 bd 62 1c 60 be 28 e3 4d be 36 dd 16 bf
       -0.09749533 -0.21885827 -0.20106184 -0.5893129
000210 93 eb 96 be 3e 5f 92 be 86 ac 00 3d 28 90 aa bd
       -0.29476604 -0.2858829 0.03141453 -0.08328277
000220 97 ec 34 be 2a 90 a3 be f3 08 61 be 54 6f 21 be
       -0.17668377 -0.31945926 -0.2197607 -0.15765125
000230 e0 a2 16 bd 04 a4 eb 3d de f6 44 be 08 1d 7a 3d
       -0.036776423 0.11505893 -0.19234797 0.061062843
000240 a9 dc d2 3d 31 e7 30 be c1 3b 37 be 63 d4 10 bf
       0.10295994 -0.17275693 -0.17893888 -0.56574076
000250 42 43 29 3e bc 01 5a 3e 32 db 16 be 8e f1 0f be
       0.16529563 0.21289724 -0.14732054 -0.1405699
000260 32 a5 e1 be b9 92 08 bf bd 15 25 be 2d 17 2b bd
       -0.44071347 -0.5334888 -0.16121574 -0.04177015
000270 b1 a5 1b bf 63 ac 1c be a5 fd 11 be 97 46 cc 3c
       -0.607997 -0.15300135 -0.14256914 0.024936004
000280 22 4d 41 bf 95 d6 81 3d 0d 46 17 3f 58 9c b3 be
       -0.7550832 0.063397564 0.59091264 -0.35080218
000290 08 6f 58 3d 14 c9 65 be 39 88 af be 12 c3 72 3e
       0.052840263 -0.22439986 -0.34283617 0.23707226
0002a0 cf fe cd 3e 8d b9 e3 be 07 82 69 be d2 56 22 bd
       0.40233466 -0.44477502 -0.22803508 -0.03963358
0002b0 66 be 29 be 10 40 e4 bd bb 89 94 3e 62 79 de 3d
       -0.16576537 -0.111450315 0.2901133 0.10862996
0002c0 c2 69 e1 be 6a 08 c7 be 83 da 0c bf 52 5f 91 3e
       -0.44026 -0.38873607 -0.5502092 0.28393036
0002d0 d2 17 86 be b4 df c2 bc 16 e4 61 be 02 3a db bc
       -0.26190048 -0.02378831 -0.22059664 -0.026761059
0002e0 38 06 1f 3d 9b b3 5c bf 4b 31 3b bc 4e af f3 3d
       0.03882429 -0.86211556 -0.011425327 0.11898671
0002f0 70 c6 8c bc 36 21 53 3e a7 e0 4f be cd cc 86 be
       -0.017184466 0.20618138 -0.20300542 -0.26328126
000300 b2 1c 39 3c 95 59 93 3e f3 5b a5 3d fa 2c 48 3d
       0.011298345 0.28779283 0.080741785 0.048871018
000310 d0 59 06 bf 7f 2d 99 3e cd e8 92 bd ad a7 4d b9
       -0.52480793 0.29917523 -0.071733095 -0.00019612788
000320 dd 42 01 3c 96 5b e4 3d f5 b0 da 3d 9e a7 be 3d
       0.007889477 0.11150281 0.10678283 0.09309314
000330 88 bf 20 bf 85 be a4 be 94 20 9a be b8 e4 97 be
       -0.62792253 -0.32176605 -0.3010298 -0.29666686
000340 cc 37 24 bd 2a 24 9e 3e 4c 12 42 3e ab 9c 12 be
       -0.040092275 0.30886966 0.18952292 -0.14317577
000350 4a a0 d9 3f d1 05 35 be 20 99 99 bd e2 db 8b be
       1.7002041 -0.17678 -0.074999094 -0.27316195
000360 81 67 de bc 19 ce cb 3d a4 e3 fb bd ea 3c 37 be
       -0.027148964 0.099514194 -0.122992784 -0.1789433
000370 ae d0 9e bc 30 00 2a be 5b 86 e1 bc 07 af fe 3d
       -0.019386616 -0.16601634 -0.027529886 0.124357276
000380 74 33 0f 3d b6 fe fa bd ba 34 18 be b3 61 b3 be
       0.03496118 -0.122556135 -0.14863864 -0.35035476
000390 bd 54 b8 bd bf 0c a4 bd 18 6c e6 be 27 29 d6 3c
       -0.090005375 -0.080102436 -0.45004344 0.02614267
0003a0 83 d0 df be f7 e2 49 bf 9c a4 01 bc 49 71 71 3e
       -0.4371377 -0.78861946 -0.007912781 0.23578371
0003b0 38 c7 bb be 04 78 e5 bc 0a b7 2d 3e c6 4c bc 3d
       -0.3667543 -0.02801133 0.16964355 0.09194331
0003c0 4f d2 b6 be b1 ad 16 be 39 8e 32 be 18 45 af 3e
       -0.35707328 -0.14714696 -0.17437066 0.34232402
0003d0 ff e9 36 bf 51 28 85 bd 99 aa 99 be da 58 cc be
       -0.714508 -0.0650183 -0.30012968 -0.39911538
0003e0 c8 dc 86 3e 7e 5a 1a be 3c 1d 62 3d 2b a8 77 bd
       0.26340318 -0.15073583 0.05520366 -0.06046311
0003f0 9c 2e 0a be 71 af 98 be 7c e8 d8 bd 06 de 28 3e
       -0.13494343 -0.2982135 -0.10591218 0.16490945

dynamic_gates.bias f4 [768]
000000 88 98 be 40 44 77 b8 40 0e 24 be 40 0e 8d bf 40
       5.9561195 5.764559 5.941901 5.9859686
000010 dc 9a bf 40 ec 84 b5 40 32 33 c5 40 50 2f c2 40
       5.9876537 5.672476 6.1624994 6.0682755
000020 79 27 bb 40 51 1c b7 40 b7 96 be 40 67 ba bd 40
       5.8485684 5.7222066 5.955898 5.929004
000030 79 cb bb 40 b1 55 bf 40 ef f4 bd 40 6f b2 c4 40
       5.868588 5.9792104 5.936149 6.1467814
000040 fa 0b bc 40 1a f7 b9 40 1a 75 bf 40 8b 96 c3 40
       5.876462 5.811414 5.9830446 6.112127
000050 82 df ba 40 be b2 c2 40 6d 56 bb 40 0e c8 b8 40
       5.8397837 6.084319 5.8543 5.7744207
000060 4b ce ae 40 a1 d9 c7 40 35 8e bc 40 62 e1 c7 40
       5.4626822 6.245316 5.8923593 6.2462626
000070 d4 b6 c0 40 8b 81 c7 40 89 ca b7 40 0d 6d bc 40
       6.022318 6.2345634 5.7434735 5.888312
000080 a8 ce b6 40 c3 67 be 40 7b 9a b1 40 64 7a b6 40
       5.7127266 5.950166 5.5501075 5.7024403
000090 59 08 b9 40 e1 e1 af 40 5b ea ba 40 c6 46 c0 40
       5.782269 5.496323 5.841108 6.0086393
0000a0 44 87 c3 40 7c cb bb 40 dc 5b c5 40 e7 30 bf 40
       6.110262 5.8685894 6.1674633 5.9747195
0000b0 22 76 b4 40 c4 3f b5 40 6d d9 bf 40 d2 7f bb 40
       5.6394205 5.664034 5.995291 5.859353
0000c0 de 0b c4 40 31 05 b9 40 53 b1 bc 40 e1 39 c1 40
       6.1264486 5.7818837 5.896646 6.0383153
0000d0 fe af c2 40 f3 08 c1 40 80 34 b9 40 c8 63 bf 40
       6.0839834 6.0323424 5.7876587 5.9809303
0000e0 06 04 b4 40 6b 73 bf 40 ba 74 b9 40 81 35 bb 40
       5.625491 5.982839 5.795499 5.8502812
0000f0 ec f1 be 40 51 06 be 40 5f 55 bf 40 6d 2e c4 40
       5.9670315 5.938271 5.9791713 6.130667
000100 66 79 be 40 c4 18 bd 40 bb 02 bb 40 a6 7d c5 40
       5.952319 5.909273 5.8440833 6.171588
000110 5f 7d c1 40 5a 2a ba 40 a3 0b ba 40 4c 93 be 40
       6.046554 5.81767 5.8139205 5.9554806
000120 28 65 c3 40 06 92 ba 40 9f cf ba 40 69 ef c1 40
       6.106098 5.830325 5.8378444 6.060475
000130 8d 33 bf 40 6f cc b5 40 ec 97 b8 40 f2 0a be 40
       5.975043 5.6812053 5.768545 5.938836
000140 ec 8d b4 40 79 53 c7 40 a5 16 c2 40 cb 51 b9 40
       5.6423244 6.2289395 6.065264 5.7912345
000150 20 2f c5 40 d8 5f c5 40 1e 15 bd 40 6f 9f c2 40
       6.1620026 6.1679497 5.908828 6.081962
000160 79 47 b8 40 c2 3a c0 40 52 04 be 40 ca 32 bb 40
       5.7587247 6.0071726 5.9380274 5.84995
000170 10 cc b9 40 8c 97 ba 40 82 8b be 40 ad 87 c1 40
       5.80616 5.8309994 5.95453 6.047812
000180 fc 38 b7 40 72 ab b4 40 8f 93 b8 40 fb a3 bc 40
       5.725706 5.6459284 5.7680125 5.895017
000190 1b e0 c3 40 97 65 b8 40 81 65 b7 40 b9 14 ae 40
       6.1211066 5.762401 5.7311406 5.4400296
0001a0 cc 7e b9 40 e9 07 b9 40 5a 08 b8 40 ae e3 b6 40
       5.796728 5.7822156 5.7510195 5.715293
0001b0 87 aa b8 40 fa db bb 40 2d 74 bc 40 2a be b4 40
       5.7708163 5.8706026 5.8891816 5.6482134
0001c0 45 0e bf 40 dd fd b8 40 82 c7 bf 40 41 75 c4 40
       5.970492 5.780989 5.993104 6.139313
0001d0 36 be bf 40 93 65 b7 40 33 12 b7 40 5f 4b b4 40
       5.991969 5.731149 5.7209716 5.6342006
0001e0 6f 51 b7 40 77 ac b2 40 e0 71 c5 40 b8 56 b5 40
       5.7286906 5.583553 6.1701508 5.666836
0001f0 45 b5 bd 40 44 ae bd 40 39 ef c4 40 9f f9 c1 40
       5.9283776 5.9275227 6.154202 6.0617213
000200 ca a5 ba 40 e3 15 bf 40 7a 18 b7 40 ab 21 ba 40
       5.832738 5.9714217 5.721738 5.81661
000210 e6 78 b6 40 50 15 bd 40 50 4d c1 40 38 9e b8 40
       5.702258 5.9088516 6.0406876 5.769314
000220 12 1e b4 40 ea 24 b6 40 43 ad b4 40 4b e3 c5 40
       5.6286707 5.692006 5.64615 6.1839957
000230 71 44 bb 40 12 d3 ba 40 7f ae bb 40 89 25 bb 40
       5.8521047 5.8382654 5.865051 5.848332
000240 80 24 bc 40 b8 45 b8 40 08 3d bc 40 d6 5c af 40
       5.8794556 5.7585106 5.88245 5.4800825
000250 74 8e b7 40 5f 81 bf 40 9a 72 bf 40 ea 31 c0 40
       5.7361393 5.9845424 5.9827394 6.006093
000260 c9 25 b4 40 2c b0 b8 40 96 e6 bb 40 e9 12 b5 40
       5.6296124 5.7715054 5.8718977 5.6585584
000270 b6 54 b2 40 17 28 bd 40 db 8b b9 40 38 4b c1 40
       5.5728407 5.911144 5.798322 6.040432
000280 7e 69 b4 40 10 3c bd 40 94 1f b8 40 f4 ed bd 40
       5.6378775 5.913582 5.7538548 5.935297
000290 b4 2a bd 40 6a f1 bb 40 f5 34 bd 40 83 00 c3 40
       5.911463 5.8732195 5.9127145 6.0938125
0002a0 ba fb b9 40 0d f5 b6 40 00 11 bc 40 e6 af bf 40
       5.8119783 5.7174134 5.877075 5.990222
0002b0 d4 66 bd 40 67 97 bc 40 c0 b4 c2 40 52 24 cb 40
       5.9188023 5.8934817 6.084564 6.3481836
0002c0 2f 5e bf 40 36 f2 ba 40 e2 13 b2 40 75 5b c1 40
       5.980247 5.842067 5.564927 6.042414
0002d0 13 8d b7 40 d2 fa c0 40 c7 26 bb 40 11 07 bd 40
       5.735971 6.0306177 5.8484836 5.9071126
0002e0 b5 2e c0 40 14 7c b0 40 15 56 c1 40 6d f3 c2 40
       6.0057015 5.5151463 6.041758 6.092215
0002f0 e8 6d b9 40 07 da c4 40 17 5d b6 40 f8 da bf 40
       5.7946663 6.1516147 5.6988635 5.9954796
000300 fe 2b ba 40 81 5f b5 40 d8 4e c6 40 50 c0 b9 40
       5.81787 5.667908 6.1971245 5.8047256
000310 93 ee b1 40 e6 86 c9 40 f1 3c c2 40 73 89 ba 40
       5.560373 6.297717 6.069939 5.8292785
000320 77 64 be 40 f8 00 bf 40 03 17 b9 40 41 7a c5 40
       5.949764 5.9688683 5.784059 6.1711736
000330 af e8 b3 40 65 e1 be 40 00 d1 bb 40 15 b6 bf 40
       5.6221538 5.965014 5.8692627 5.990977
000340 ba ae bd 40 7d 87 bb 40 ea 57 bc 40 1a 45 ba 40
       5.927579 5.860289 5.8857317 5.8209352
000350 b9 c0 bf 40 ad 34 c2 40 55 22 bc 40 f1 e2 be 40
       5.9922757 6.06893 5.879191 5.965203
000360 02 6e bb 40 06 eb bd 40 69 bd be 40 b4 54 b9 40
       5.8571787 5.9349394 5.9606214 5.7915897
000370 25 06 c1 40 3e f2 c0 40 28 a1 bc 40 ca ce b8 40
       6.032 6.0295706 5.8946724 5.775243
000380 ac 89 bc 40 b3 09 c2 40 1f 98 b3 40 17 46 b7 40
       5.8918056 6.063684 5.6123195 5.727306
000390 a7 5f bb 40 47 a7 bc 40 f8 85 b2 40 6b 5b c3 40
       5.8554263 5.8954196 5.5788536 6.1049094
0003a0 79 c2 b2 40 12 36 af 40 dc bd bc 40 4e f5 c6 40
       5.5862393 5.4753504 5.898176 6.2174444
0003b0 d9 bd bc 40 48 7e bc 40 31 9d b5 40 2d 01 bb 40
       5.898175 5.890415 5.6754384 5.8438935
0003c0 a3 a3 c1 40 58 0e be 40 c5 c1 bb 40 5f 3b c7 40
       6.051225 5.939251 5.8674035 6.2259974
0003d0 29 b6 b6 40 9d 8b b9 40 d6 d8 bc 40 e0 b1 ba 40
       5.7097363 5.7982926 5.901469 5.8342133
0003e0 2d cc c9 40 7a f6 c0 40 43 67 b9 40 ce 3d bb 40
       6.306174 6.0300875 5.793855 5.8512945
0003f0 38 81 b5 40 d4 5f b7 40 74 14 c0 40 1e 12 be 40
       5.672024 5.730448 6.0024967 5.9397116

head.net.0.weight f4 [1, 256]
000000 a9 a3 a8 ba 8c 0e 55 bb 96 6c a8 3e 99 01 91 3e
       -0.0012866157 -0.0032509891 0.32895344 0.2832153
000010 d7 9e 49 3e 93 8c 0c bf 58 3b c4 3d 9f 37 93 be
       0.19689499 -0.54902 0.095816314 -0.28753373
000020 ec c6 a8 be dd a5 8f 37 97 a6 88 be 75 ec 8e bd
       -0.32964265 1.7124165e-05 -0.26689598 -0.06978694
000030 f1 21 94 3d 5d 5b 1c b9 ee 52 41 3a 57 7a 44 be
       0.07233036 -0.00014911355 0.0007374723 -0.19187294
000040 66 71 0e 3b ab 2e b3 3a e6 8e cb 3c 68 8e d7 be
       0.0021735071 0.0013670524 0.024848413 -0.42100835
000050 56 a6 aa 3d 50 ca e1 b8 1c fa ef 37 28 5e 90 b8
       0.08332507 -0.0001076652 2.8607486e-05 -6.883993e-05
000060 f1 48 93 be 8f 24 a6 3d bf d8 58 bb a3 63 a4 ba
       -0.28766587 0.08112442 -0.0033088175 -0.0012541901
000070 2f 38 09 3f 80 cf 1a 3c f0 8e 99 be 1e 91 9b 3d
       0.53601354 0.009448886 -0.29991865 0.07596038
000080 bc 29 9f bd ff 50 aa 3b a2 5e d6 be 67 8e 1d b9
       -0.07771632 0.005197644 -0.41869074 -0.00015025736
000090 e4 f0 40 3e 1e d9 49 bf d3 ab 30 3b b5 8f 27 3d
       0.18841892 -0.7884692 0.0026957884 0.040908534
0000a0 50 ee e2 3a 4b 9b 7b 3a b5 d1 9a be 87 eb 48 bc
       0.0017313454 0.00095980306 -0.3023812 -0.012263185
0000b0 e4 27 b6 3b 4a 0a 45 3d d0 a5 c2 be a8 c3 d0 bb
       0.0055589546 0.048105516 -0.3801713 -0.0063709803
0000c0 72 af 9b 38 67 28 1a 3c 30 db 1a bf 10 7d 14 bf
       7.423655e-05 0.009409047 -0.60490704 -0.5800333
0000d0 38 38 23 bd b3 a0 51 be 2c 9a 27 3c 81 43 d4 be
       -0.039848536 -0.20471458 0.0102296285 -0.4145775
0000e0 ea de 2d bc 0e 8a 92 be 8e 21 a4 be 76 83 0f 3a
       -0.010612229 -0.28620952 -0.3205685 0.00054746063
0000f0 a4 58 b9 3a 1e 5e 97 b9 66 28 dc be 0d 5a 67 3b
       0.0014140797 -0.00028871087 -0.42999572 0.0035301477
000100 68 c4 2e 3d 51 17 fa 3d 26 a1 b8 3e ef 4b 92 ba
       0.042667776 0.122114785 0.36060447 -0.0011161546
000110 fc 38 ae bd b4 d0 5d bb f3 f9 80 bf 3b 40 92 3b
       -0.08506963 -0.003384632 -1.0076278 0.0044632233
000120 4b 8a 04 bf 39 f3 b8 be 37 6d aa be b5 6b 03 bf
       -0.5177352 -0.36123064 -0.3328645 -0.5133622
000130 6c ed 05 3b c2 ae 90 be 18 4b db 3e 87 91 a6 3e
       0.0020435704 -0.2825833 0.4283073 0.32532904
000140 9c 26 28 bf a2 3f a6 3d d6 d6 06 bc 52 20 4e ba
       -0.65683913 0.08117606 -0.008229932 -0.00078630925
000150 5d d4 10 3d a3 24 11 ba 84 5d 08 bb a0 c9 b8 b8
       0.035358775 -0.00055367703 -0.0020807693 -8.811359e-05
000160 9e 13 7b 3e bc b9 35 bc cc d6 c9 bb d6 26 12 b9
       0.24519202 -0.011091646 -0.006159639 -0.00013938113
000170 d6 19 bb 3b 6a a2 72 bf 20 23 04 bf 9f 2a 1e 39
       0.005709867 -0.94779074 -0.51616096 0.00015083932
000180 f2 d0 67 bb fb a4 d6 bc e5 c5 35 ba 29 e8 d2 be
       -0.0035372344 -0.026201716 -0.00069340906 -0.4119275
000190 68 e5 dd be 6f 44 12 3c f9 e3 ba 3e dc 12 8f 3e
       -0.43339086 0.008927449 0.36502054 0.27944076
0001a0 52 cc 81 bf 6b ed c8 3a ca c1 e6 3a 4a fc 09 3f
       -1.0140479 0.0015329545 0.0017605361 0.5390059
0001b0 0f 88 1d 3f ee cb ed ba ee 45 17 bc f4 1b 72 3d
       0.61535734 -0.0018142441 -0.009232981 0.05910869
0001c0 10 33 2d be 2c 70 b4 3b 06 1b 49 ba ca 4e be ba
       -0.1691401 0.005506536 -0.00076715683 -0.001451933
0001d0 f4 17 5c 3c 35 f9 e0 3b 76 f1 1e 3b 92 20 98 3b
       0.013433445 0.0068656453 0.0024252809 0.0046425546
0001e0 2c 6b 94 b9 14 c2 ce 3e db 61 84 3c 19 94 0d 39
       -0.0002830861 0.40382445 0.016159942 0.00013501979
0001f0 45 22 4a 3d 96 1f 80 bf 5f 5e 69 3d c9 92 83 be
       0.04934909 -1.0009639 0.056974765 -0.25697926
000200 b6 db 19 3f bd 51 cf be 8d a7 97 3f 48 17 17 bc
       0.6010088 -0.4049205 1.1848007 -0.009221859
000210 a0 72 14 39 90 e3 5a 3c ea c6 25 3d 73 b4 0c bf
       0.00014157081 0.013359919 0.040472902 -0.54962844
000220 37 71 0a 3d 86 28 bd 3a 9e 8b e5 3c 7d 8a 0e bf
       0.033799376 0.0014431633 0.028020676 -0.55680066
000230 1b d7 07 3d 41 6e 1f bf fc 77 28 3c af 3f 4e 3c
       0.033164125 -0.6227761 0.010282513 0.012588426
000240 83 b5 58 3a 65 81 0e bf d5 3a 16 3f 5b 8c 75 3f
       0.00082667934 -0.5566619 0.5868352 0.9591729
000250 82 59 26 be 9f 20 a2 3c 63 8b 4b 3e c5 50 3e 3c
       -0.16245082 0.019790946 0.1987739 0.011615937
000260 20 41 f9 be 9d f1 3d be e9 7f 93 3e 7c 01 e2 be
       -0.486825 -0.185492 0.28808525 -0.44141757
000270 82 0b 13 3e 9d 07 0b 3f f1 f2 b4 bc 37 60 9f bb
       0.14359859 0.5430849 -0.0220885 -0.0048637646
000280 19 dc a9 3a d1 cf da 3e db c2 41 ba 7c 57 e7 3e
       0.0012959271 0.42736676 -0.00073914015 0.45183933
000290 54 a7 02 3f 70 5d 39 be d8 f6 e3 bd 18 54 04 bf
       0.5103657 -0.1810205 -0.11131066 -0.51690817
0002a0 3c a9 d1 3c cf 79 5d 3c 1a 94 56 bb 62 96 8c ba
       0.025593393 0.013517811 -0.0032742084 -0.001072597
0002b0 cc 4c 3d 3d e6 2c 06 bb ba c2 08 3c 1b f9 82 3e
       0.046215817 -0.002047354 0.008347208 0.25580677
0002c0 89 9b 00 3d 1d 41 e7 3c 76 0a 67 bc ee de 30 3f
       0.03139833 0.02822929 -0.014101615 0.69090164
0002d0 06 a8 4d bf c3 08 47 3c 1a 3a 79 3d 44 13 25 3c
       -0.8033451 0.012148085 0.060846426 0.010075394
0002e0 fa 54 3d bf 84 fe f5 39 91 41 e3 3c 28 b7 13 3c
       -0.7395779 0.0004691967 0.027741225 0.009015836
0002f0 1d f1 00 bc 69 9b 00 bf c6 1f dd 39 25 e4 84 be
       -0.007869986 -0.5023714 0.00042176078 -0.2595531
000300 5c 48 9d ba 75 58 80 bb 15 d9 30 3f 69 75 6c ba
       -0.0011999714 -0.003916795 0.6908124 -0.0009020181
000310 55 87 0d 3d d7 e3 d4 be 98 b4 80 bc 7c 0f c4 bc
       0.03455289 -0.41580078 -0.015711114 -0.023933165
000320 e7 00 53 3e 3c 32 fb be 26 30 a4 3b 42 bd 09 3f
       0.20605813 -0.49061763 0.0050106226 0.5380441
000330 b2 c5 e5 3c c9 8b 9e 3b b6 d1 c0 3a 6e 6f 58 bf
       0.02804837 0.004838441 0.0014710936 -0.8454503
000340 8a 98 90 be ab 58 13 3b 14 c0 01 3d 2d 79 19 bd
       -0.28241378 0.002248327 0.03167732 -0.037469078
000350 e7 b6 f8 38 03 a1 b6 3e df bf ba b8 53 2a ab bb
       0.0001185963 0.35669717 -8.90491e-05 -0.0052235513
000360 c7 ea fd ba 04 7c 3d bf 86 4b 1c 3f 6b b0 98 bc
       -0.0019372337 -0.7401736 0.6105274 -0.01863881
000370 dc d0 a9 3c 6a 98 f4 3e 0f 56 be b8 b1 14 66 bf
       0.020729475 0.47772533 -9.075936e-05 -0.8987532
000380 5d 2f a9 be 8c a0 86 bb 2d 1f 89 ba 4b d0 d8 be
       -0.33043948 -0.004108494 -0.0010461562 -0.42346415
000390 fa 27 fe 3d bd b4 a3 3c 7a c4 d8 be 8e d4 d1 3e
       0.12409969 0.019983644 -0.423374 0.4098248
0003a0 15 16 12 3e 0f 07 6d bf 27 25 11 3e 00 cf d3 3e
       0.14266236 -0.92588896 0.14174329 0.41368866
0003b0 7f 88 81 3e 47 d7 07 39 b9 80 44 3d a0 fc cd b9
       0.2529945 0.000129548 0.047974322 -0.00039288867
0003c0 99 4d 39 bf b4 e9 ba ba 85 7d 91 be 0e 65 dc 3a
       -0.7238403 -0.0014260323 -0.28416076 0.0016814785
0003d0 b7 ac d1 bc 23 e8 b2 3c a0 a9 12 3f 15 fd 4f 3b
       -0.025595052 0.021839207 0.5729008 0.0031736542
0003e0 fa 76 63 bc c5 4c d5 be 26 b6 47 3d 68 44 8f be
       -0.013883347 -0.41660133 0.048757695 -0.27981877
0003f0 e3 8d d7 bd 27 60 ac bc 2d 99 9a 3d 33 05 1f 3d
       -0.105251096 -0.021041943 0.07548747 0.038823318
